models/blocksworld.pth (torch_old, 203036 bytes, 118 tensors)

features.layers.0.logic.1.layer.0.mlp.0.weight f4 [8, 24]
0	0xbff2f67c	-1.8981471
1	0x3dfadf28	0.12249595
2	0xbd36d864	-0.04463996
3	0xbd1d36a0	-0.038382173
4	0x3e20a5a6	0.1568819
5	0x3e23c3aa	0.15992609
6	0xbf05b54b	-0.52229756
7	0xbe22a17d	-0.15881915
8	0xbe5d9acc	-0.21641082
9	0x3e3f54fc	0.18684763
10	0xbdb3ad64	-0.08773306
11	0xbdfb3632	-0.12266196
12	0xbeaaa36c	-0.33327806
13	0xbe184e60	-0.14873648
14	0xbfacb84a	-1.349374
15	0xbd069228	-0.03285423
16	0x3f391f80	0.7231369
17	0xbe4dcce4	-0.20097691
18	0xbe626b3f	-0.22111224
19	0x3de9c87c	0.114151925
20	0x3b01a7d1	0.0019783864
21	0x3f4c9245	0.7991069
22	0xbcddcd76	-0.02707551
23	0x3f920f90	1.1410999
24	0xbfe97af1	-1.8240644
25	0x3e1abe88	0.15111744
26	0x3deecb05	0.11659817
27	0x3cddb8f8	0.027065739
28	0x3e34b807	0.17648326
29	0xbdde3f69	-0.10851938
30	0xbd6bd8c8	-0.057579786
31	0x3b23e9c0	0.0025011152
32	0xbf0b9163	-0.5451872
33	0xbe4920b6	-0.19641384
34	0xbed544a5	-0.41653934
35	0x3d9a47f0	0.07533252
36	0x3eb94e62	0.36192614
37	0x3d90838c	0.070563406
38	0x3e867a3e	0.26265138
39	0xbe0704ee	-0.13185474
40	0x3ed87a54	0.4228083
41	0xbe161c1b	-0.14659159
42	0xbe87102f	-0.26379535
43	0x3e166604	0.14687353
44	0xbf06a419	-0.52594143
45	0xbeae0916	-0.33991307
46	0xbecea0ab	-0.40356955
47	0xbe362e76	-0.17791161
48	0xbf618b57	-0.8810324
49	0xbcdaeb40	-0.026723504
50	0x3ea8ed5b	0.32993588
51	0xbdb4d2f8	-0.088293016
52	0x3e9fb97b	0.31196198
53	0x3e37cba4	0.17948776
54	0x3e8af977	0.27143452
55	0x3e1e7936	0.15475926
56	0x3dbe3c5b	0.09288856
57	0x3dcce878	0.100052774
58	0x3d22f52f	0.039784607
59	0x3dba472c	0.09095606
60	0x3f642579	0.8911968
61	0x3e428182	0.18994716
62	0x3e9bb7b7	0.304136
63	0xbe11ba51	-0.1423123
64	0x3f043c94	0.51654935
65	0x3d3f8f08	0.046767265
66	0xbf778f41	-0.96702963
67	0xbbf173e0	-0.0073685497
68	0xbf71a345	-0.94389755
69	0xbdc51207	-0.09622579
70	0xbf7716bf	-0.9651908
71	0xbee4e0b6	-0.4470269
72	0xc00f492b	-2.2388408
73	0xbdc29e68	-0.0950287
74	0x3ebaf0fc	0.3651198
75	0xbe16422a	-0.14673677
76	0x3e6ddf3c	0.23229688
77	0x3d2d7044	0.042343393
78	0x3f0a8914	0.54115415
79	0xbdf94c3c	-0.12172744
80	0x3e44ecd2	0.19230965
81	0xbdf7ee74	-0.12106028
82	0x3c69b306	0.014263874
83	0x3e32648a	0.17421165
84	0x3e24fc6a	0.16111913
85	0x3e26a05c	0.1627211
86	0xbf2fc195	-0.6865476
87	0x3d97d750	0.074141145
88	0x3fb3df0a	1.4052441
89	0xbda36001	-0.07977296
90	0xbe186835	-0.14883502
91	0x3e20488c	0.15652674
92	0xbe5c386d	-0.215059
93	0x3eb4eb2d	0.35335675
94	0xbec47d1f	-0.3837671
95	0x3aa90a93	0.0012896828
96	0xc00f40d4	-2.2383318
97	0xbcedde20	-0.029036582
98	0x3e99dae8	0.30049825
99	0xbd9613a6	-0.073279664
100	0x3e4a97b1	0.19784428
101	0xbdbe970e	-0.09306155
102	0xbe36b5db	-0.1784281
103	0xbd6ad900	-0.057335854
104	0x3c614507	0.013749368
105	0xbd640b0c	-0.055674598
106	0xbe43f691	-0.19137026
107	0x3b5d6bc0	0.0033786148
108	0xbf56dcb9	-0.83930546
109	0x3d08c7f8	0.03339383
110	0xbf43b51c	-0.76448226
111	0x3ad5a400	0.0016299486
112	0x3f8df60c	1.1090713
113	0x3e4ca1ba	0.19983569
114	0x3e9b2a8c	0.30305898
115	0x3dd37584	0.10325149
116	0x3ebe5c9e	0.37180036
117	0x3edb25dd	0.42802325
118	0x3e07aef7	0.13250338
119	0x3f25d137	0.6477236
120	0xc0095bc9	-2.1462271
121	0x3d9427f8	0.07234186
122	0x3e7650f7	0.24054323
123	0x3c7956c0	0.015218437
124	0x3e0dae59	0.1383604
125	0x3dafeef0	0.085904956
126	0xbdba69e9	-0.09102232
127	0xbe0ae3ae	-0.13563415
128	0xbe49388a	-0.19650474
129	0x3e15d7c2	0.14633086
130	0xbdfef756	-0.12449519
131	0x3d865574	0.06559268
132	0xbf6631f0	-0.8991995
133	0xbdf6ed5c	-0.120569915
134	0xbf1c7d72	-0.61128914
135	0x3d9bb8c8	0.076036036
136	0x3f2bffef	0.671874
137	0x3e24b62a	0.16085115
138	0x3ee582fd	0.448265
139	0xbdf47d84	-0.11938003
140	0x3ee0b3ff	0.43887326
141	0x3e8cdfff	0.27514645
142	0x3d968227	0.07349043
143	0x3f6d443a	0.9268223
144	0xbf908b50	-1.1292515
145	0x3d337d6c	0.043820783
146	0xbe963330	-0.29335928
147	0xbd4a96f8	-0.04946038
148	0xbd534c8d	-0.051586676
149	0x3e3bb918	0.18332326
150	0xbfba0cd6	-1.4535167
151	0xbd27e12c	-0.040986225
152	0xbea89994	-0.3292967
153	0x3cede0e8	0.029037908
154	0xbef45aa6	-0.4772541
155	0xbe2fec7c	-0.17180055
156	0x3ebeef91	0.3729215
157	0x3d5312f0	0.051531732
158	0xbf29d256	-0.6633657
159	0xbe3eacdf	-0.18620633
160	0x3e57e317	0.21082722
161	0xbdd1d90a	-0.10246475
162	0x3c9dd063	0.019264406
163	0x3d6f1640	0.05837083
164	0x3d347002	0.04405213
165	0xbeed6796	-0.46368092
166	0xbdd245c9	-0.10267217
167	0x3f7b173f	0.98082346
168	0xbf504bed	-0.81365854
169	0x3e481e10	0.19542718
170	0x3dfee35d	0.1244571
171	0x3e01f694	0.12691718
172	0x3e1ece37	0.15508352
173	0xbe28b75b	-0.16476195
174	0x3eaa8936	0.3330781
175	0xbc9ef648	-0.019404545
176	0xbe8a8721	-0.2705622
177	0xbe195978	-0.14975536
178	0xbe6dde2c	-0.23229283
179	0xbdeb6a4e	-0.114948854
180	0xbf23d4ce	-0.6399659
181	0xbdc62693	-0.09675326
182	0x3f6473f5	0.89239436
183	0x3e06bafa	0.13157263
184	0x3e52f1b8	0.20600021
185	0xbe1f644e	-0.15565607
186	0xbf29586b	-0.6615054
187	0x3d794860	0.060860038
188	0xbf789c09	-0.9711309
189	0xbe4df9fc	-0.20114893
190	0xbf1fc383	-0.624077
191	0xbe83fbf4	-0.25778162

features.layers.0.logic.1.layer.0.mlp.0.bias f4 [8]
0	0xbec18422	-0.37796122
1	0xbf08931c	-0.5334947
2	0xbe0c4d38	-0.13701332
3	0x3cbd6fc9	0.023124592
4	0x3dbf1cc2	0.09331657
5	0x3911ce82	0.00013905208
6	0xbf10db48	-0.56584597
7	0xbefbcdd5	-0.49180475

features.layers.0.logic.2.layer.0.mlp.0.weight f4 [8, 24]
0	0x3f3b7759	0.73228985
1	0x3deee40c	0.1166459
2	0x3fadfc17	1.3592557
3	0x3eadf942	0.3397923
4	0xbe13c26e	-0.14429638
5	0xbda6c0cb	-0.08142241
6	0xbf05dd97	-0.52291244
7	0xbf4e8432	-0.80670464
8	0xbed974b2	-0.42471844
9	0x3e5eed27	0.21770154
10	0xbe797290	-0.24360108
11	0x3f41c951	0.7569781
12	0xbeca13a9	-0.39468125
13	0x3ef6e956	0.48224896
14	0xbdb0b95b	-0.08629104
15	0x3f00f0ad	0.5036724
16	0xbccdafad	-0.025108183
17	0xbe520f51	-0.20513655
18	0xbe65b57e	-0.22432515
19	0xbf035347	-0.51298946
20	0x3f251fac	0.6450145
21	0x3d9234c5	0.07138971
22	0x3fb3f4ac	1.4059043
23	0x3ef7ecae	0.4842276
24	0x3f89a450	1.0753269
25	0x3ee1517e	0.44007486
26	0xbf0d755f	-0.5525722
27	0x3deb8fd9	0.11502046
28	0xbf33f886	-0.7030109
29	0xbf7cabc1	-0.98699576
30	0xbe8228ce	-0.25421757
31	0xbf9e0203	-1.2344364
32	0xbf970afd	-1.1800228
33	0xbdf33a29	-0.118763275
34	0x3e8186e0	0.25298214
35	0x3f49e2df	0.788618
36	0xbf7b3bd8	-0.9813819
37	0x3e5369d0	0.20645833
38	0x3e5f15da	0.2178568
39	0x3f7d363a	0.9891087
40	0xbf2350c9	-0.63795143
41	0xbf6843a3	-0.90728205
42	0xbea9aeee	-0.33141273
43	0xbf8a41fa	-1.0801384
44	0x3f833840	1.0251541
45	0x3e50e7fe	0.20400998
46	0xbf1698d7	-0.58826965
47	0xbe60de7e	-0.21959874
48	0xbd46ec12	-0.048564978
49	0x3d9ce69b	0.07661172
50	0xbe7f4fe6	-0.24932823
51	0xbfd56840	-1.667244
52	0xbdc3e8c5	-0.09565882
53	0xbeb1fd45	-0.34763542
54	0x3f8e47c1	1.1115648
55	0x3d2d3ce4	0.042294398
56	0xbf1e8842	-0.6192666
57	0xbd48d11a	-0.04902754
58	0xbf909f5b	-1.1298631
59	0x3f16a28e	0.5884179
60	0xbec81fec	-0.39086854
61	0x3e549e70	0.20763564
62	0xbf8833a3	-1.0640758
63	0x3f622c27	0.8834862
64	0x3b12b8f3	0.002238807
65	0xbd905066	-0.07046585
66	0x3f8e4ed0	1.1117802
67	0xbe47002d	-0.19433661
68	0xbe015862	-0.12631372
69	0x3d6d18b5	0.05788489
70	0xbe84b10c	-0.25916326
71	0xbfdcccf9	-1.7250053
72	0xbf56921c	-0.83816695
73	0xbf233e4d	-0.6376694
74	0xbf9cd528	-1.225255
75	0xbf8188f0	-1.0119915
76	0xbec184c6	-0.3779661
77	0x3f177133	0.59157103
78	0x3f0c4c5b	0.5480401
79	0x3ecb0b67	0.39657137
80	0xbf02ddbc	-0.5111959
81	0xbf600804	-0.8751223
82	0xbfbbcef2	-1.467253
83	0xbfebbfd0	-1.8417912
84	0xbf0a2f37	-0.53978294
85	0xbf62b555	-0.8855794
86	0xbfa1fb19	-1.2654754
87	0xbfeb3a92	-1.8377249
88	0xbd9ef832	-0.07762183
89	0x3f2adc66	0.6674255
90	0x3f076cf5	0.5290063
91	0x3f074a12	0.528474
92	0xbf5dd328	-0.86650324
93	0xbf31d580	-0.694664
94	0xbfb0375c	-1.3766894
95	0xbf690438	-0.9102206
96	0xbe7bbc9e	-0.2458367
97	0xbd12acf3	-0.03580947
98	0x3fe0aec1	1.7553331
99	0xbe946a40	-0.28987312
100	0xbd95f6a1	-0.07322431
101	0x3e38315b	0.17987578
102	0xbfcbe06c	-1.5927863
103	0x3cbbb1dd	0.02291196
104	0xbcf5f3c3	-0.030023461
105	0xba5d6982	-0.0008446203
106	0x3f8401b0	1.0313015
107	0x3ee5a88d	0.44855157
108	0xbd0a13a9	-0.033710156
109	0xbd9289e2	-0.07155205
110	0x3f4f9447	0.8108563
111	0x3ebee480	0.37283707
112	0xbe1540b5	-0.14575465
113	0x3ee71e49	0.45140293
114	0xbfdc30ac	-1.7202353
115	0x3d954cac	0.072900146
116	0xbe2e5413	-0.1702426
117	0xbc80d188	-0.015724912
118	0x3fc429a5	1.5325209
119	0xbe9bc0e7	-0.3042061
120	0xbf391432	-0.7229644
121	0xbf347fee	-0.70507705
122	0xbfc71516	-1.555331
123	0xbf891819	-1.0710479
124	0xbe942975	-0.2893788
125	0x3f37f377	0.7185587
126	0x3ebda773	0.37041816
127	0x3ec8f23d	0.39247313
128	0xbecd6680	-0.40117264
129	0xbf3e1b43	-0.7426035
130	0xbfb86f2b	-1.4408926
131	0xbfe10ff7	-1.7582997
132	0xbec8a25b	-0.39186367
133	0xbf4def94	-0.8044369
134	0xbfab302d	-1.3374077
135	0xbfe5d8f9	-1.795684
136	0xbdced261	-0.1009872
137	0x3f413501	0.754715
138	0x3f4186a4	0.7559607
139	0x3f028012	0.5097667
140	0xbf634b4e	-0.8878678
141	0xbf1bb6e9	-0.60825974
142	0xbfd8067c	-1.6876979
143	0xbf679181	-0.90456396
144	0x40068e49	2.1024344
145	0xbda1c99b	-0.07899781
146	0x3eeada4f	0.4586968
147	0xbf50c59b	-0.8155152
148	0x3d3113fd	0.043231953
149	0xbee7b3d4	-0.45254385
150	0xbf21acf0	-0.63154507
151	0xbf7eac23	-0.9948141
152	0xbfe5c13f	-1.7949599
153	0xbd3a00fa	-0.045411088
154	0x3c44ce57	0.012012086
155	0x3fccabfc	1.5989985
156	0xbfd8b4ea	-1.693021
157	0x3e57679e	0.2103562
158	0xbdd9098f	-0.10597526
159	0x3fcd6e85	1.6049353
160	0x3e0362e4	0.12830693
161	0xbe81c4ad	-0.25345364
162	0xbeec4f27	-0.46154138
163	0xbf3b1162	-0.730734
164	0x4006866b	2.1019542
165	0x3c1670f9	0.009182208
166	0x3f00eb07	0.50358623
167	0xbf54611c	-0.8296068
168	0xbf562718	-0.836534
169	0xbf4e6602	-0.806244
170	0xbfc9d672	-1.5768569
171	0xbf12ba4f	-0.57315534
172	0xbd2955f1	-0.041341726
173	0x3f420d91	0.7580195
174	0x3ec6635d	0.38747683
175	0x3ef31c7b	0.47482666
176	0xbed5ec72	-0.41781956
177	0xbf5dbf6a	-0.866202
178	0xbef9dd36	-0.48801583
179	0xbfa1d0f7	-1.2641896
180	0xbdd7840f	-0.10523235
181	0xbf3ba0bc	-0.73292136
182	0xbe79e290	-0.24402833
183	0xbf91f275	-1.1402117
184	0xbdbdd7cc	-0.092696756
185	0x3f40b561	0.7527676
186	0x3eb651b5	0.35609213
187	0x3ea07702	0.31340796
188	0xbf8dc694	-1.1076226
189	0xbf2b694e	-0.6695756
190	0xbfc5b171	-1.5444776
191	0xbf5e1bcf	-0.8676118

features.layers.0.logic.2.layer.0.mlp.0.bias f4 [8]
0	0x3e15baec	0.14622086
1	0xbe8cdb9a	-0.27511293
2	0xbe944619	-0.2895973
3	0xbf43b239	-0.7644382
4	0x3e2dab18	0.16959798
5	0xbf8f2df6	-1.1185901
6	0xbddb1322	-0.10697009
7	0xbf86aee9	-1.0522128

features.layers.1.logic.0.layer.0.mlp.0.weight f4 [8, 16]
0	0xbfcb908c	-1.5903487
1	0xbeccfc2c	-0.40036142
2	0xbf548180	-0.830101
3	0xbe4de972	-0.20108584
4	0xbf830c5e	-1.0238149
5	0xbef3d0dc	-0.47620285
6	0xbf8f12a8	-1.1177568
7	0xbf95610b	-1.167024
8	0xbf9afd29	-1.2108508
9	0xbf1d22db	-0.6138131
10	0xbf6c3c9f	-0.9228
11	0xbf4bf8f9	-0.7967678
12	0xbf9deb87	-1.2337502
13	0xbf247b5a	-0.6425072
14	0xbf56486b	-0.8370425
15	0xbf2da6d9	-0.67832714
16	0xbfca90e7	-1.5825471
17	0xbeffbfc0	-0.4995098
18	0xbf905ea3	-1.1278881
19	0xbf66aafb	-0.90104645
20	0xbf9fb7f8	-1.2478018
21	0xbf53741a	-0.8259903
22	0xbf72160c	-0.9456489
23	0xbf6bab6d	-0.9205845
24	0xbf67028b	-0.90238255
25	0xbf3744c9	-0.7158933
26	0xbfa91a4d	-1.3211151
27	0xbf85cead	-1.0453697
28	0xbfb8ca2f	-1.4436702
29	0xbf2b8fe9	-0.67016464
30	0xbf817230	-1.0112972
31	0xbec3a708	-0.38213372
32	0xbfcb0b25	-1.5862776
33	0xbf345a8c	-0.70450664
34	0xbf775996	-0.9662107
35	0xbec7aa91	-0.3899732
36	0xbf57fcaa	-0.8436991
37	0xbea8aa02	-0.32942206
38	0xbf957d32	-1.1678832
39	0xbf6bfa68	-0.92178965
40	0xbf9e0e93	-1.2348198
41	0xbf1b4d6d	-0.6066502
42	0xbf932f28	-1.1498766
43	0xbf1b7321	-0.6072255
44	0xbf9237a2	-1.1423228
45	0xbf6a520a	-0.9153143
46	0xbf3afbb6	-0.7304033
47	0xbf4da892	-0.8033534
48	0xbfe39bb4	-1.7781892
49	0xbeb69b89	-0.3566554
50	0xbf398d9c	-0.72481704
51	0xbed2f414	-0.41201842
52	0xbf89c750	-1.076395
53	0xbeab6221	-0.33473304
54	0xbf8ac784	-1.0842137
55	0xbf869ecf	-1.0517215
56	0xbf6225ef	-0.8833913
57	0xbf1f9909	-0.6234289
58	0xbf597b5e	-0.8495387
59	0xbf1959d6	-0.59902704
60	0xbf963ae0	-1.1736717
61	0xbf2e5ee5	-0.6811355
62	0xbf127084	-0.57202935
63	0xbf486692	-0.7828151
64	0xbfb6a434	-1.4268861
65	0xbf4342f1	-0.7627402
66	0xbf92bae3	-1.1463283
67	0xbf4bf57e	-0.79671466
68	0xbf89db35	-1.0770022
69	0xbf607ab1	-0.8768721
70	0xbf98cf9b	-1.1938356
71	0xbfacc7ff	-1.3498534
72	0xbfa320de	-1.2744405
73	0xbf552671	-0.8326178
74	0xbfaeb27d	-1.364822
75	0xbf4cfe93	-0.8007595
76	0xbf9c2534	-1.2198853
77	0xbf0e4956	-0.5558065
78	0xbf6116b0	-0.87925243
79	0xbf66651b	-0.89998025
80	0xbfcc2b9a	-1.5950806
81	0xbf655f27	-0.89598316
82	0xbf716361	-0.94292265
83	0xbf3d3437	-0.739078
84	0xbf9a3f92	-1.205065
85	0xbf361722	-0.7112905
86	0xbf6f5cbe	-0.9350089
87	0xbfb34e49	-1.4008266
88	0xbf77b112	-0.9675456
89	0xbf7d4224	-0.9892905
90	0xbf930858	-1.1486921
91	0xbf72ec87	-0.9489216
92	0xbfbbab51	-1.4661657
93	0xbf799b3a	-0.9750248
94	0xbf30e491	-0.69098765
95	0xbf1675c0	-0.5877342
96	0xbfc7d83e	-1.5612867
97	0xbf2929ea	-0.6607958
98	0xbf293194	-0.66091275
99	0xbee4a6b9	-0.4465845
100	0xbf7f97f2	-0.99841225
101	0xbf0a6c78	-0.5407176
102	0xbfa28ce8	-1.2699251
103	0xbf86019f	-1.0469245
104	0xbfb18d6c	-1.3871284
105	0xbf223aa9	-0.6337076
106	0xbfac6cec	-1.347074
107	0xbf23329b	-0.6374909
108	0xbf8901fc	-1.070373
109	0xbf76c8a1	-0.96399885
110	0xbf3dda65	-0.7416137
111	0xbf4c8d21	-0.79902846
112	0xbfcffffb	-1.6249994
113	0xbee2b8aa	-0.44281512
114	0xbf5523d7	-0.8325781
115	0xbf431f9a	-0.76220095
116	0xbf542d36	-0.82881486
117	0xbed9b13f	-0.4251804
118	0xbf40300a	-0.750733
119	0xbf5bff10	-0.8593607
120	0xbf7c8e7b	-0.9865491
121	0xbf0cdd6b	-0.55025357
122	0xbf86b6fe	-1.0524595
123	0xbf5a40ce	-0.85255134
124	0xbfce346b	-1.6109747
125	0xbf5981b7	-0.84963554
126	0xbf4f9ce6	-0.81098783
127	0xbf1cb4a7	-0.61213154

features.layers.1.logic.0.layer.0.mlp.0.bias f4 [8]
0	0xbf5804a5	-0.84382087
1	0xbf90c322	-1.130955
2	0xbf85f478	-1.0465231
3	0xbf82a11a	-1.0205414
4	0xbf3dfeb8	-0.74216795
5	0xbf787e6f	-0.9706792
6	0xbf8c1d4d	-1.0946442
7	0xbf720511	-0.9453898

features.layers.1.logic.1.layer.0.mlp.0.weight f4 [8, 48]
0	0xbe16e8e9	-0.14737286
1	0x3ef9074c	0.4863838
2	0x3df82bed	0.12117753
3	0x3e989970	0.29804564
4	0x3ef043a0	0.46926594
5	0x3f429255	0.76004535
6	0xbeb6abd9	-0.35677984
7	0x3eecca05	0.4624788
8	0xbe4eadd8	-0.20183504
9	0xbd0e2ae2	-0.034708865
10	0x3d110be1	0.03541172
11	0x3d197d3c	0.03747295
12	0xbdb6ff3c	-0.08935401
13	0x3d35769c	0.044302568
14	0x3f24e405	0.6441043
15	0xbd84cdde	-0.064845785
16	0x3d977e72	0.073971644
17	0xbdbb1928	-0.091356575
18	0x3e4ad180	0.1980648
19	0x3c769a50	0.015051439
20	0xbf80600c	-1.0029311
21	0xbcadb278	-0.021203265
22	0x3f09ae8a	0.5378195
23	0xbd157484	-0.03648807
24	0x3ef99a59	0.4875057
25	0x3dbbafda	0.091644004
26	0x3ef72a6b	0.4827455
27	0xbdacf1d8	-0.084445655
28	0x3e9e8ccb	0.30966792
29	0x3b903fcd	0.004402137
30	0x3eb8d4e6	0.3609993
31	0x3c9b9214	0.018990554
32	0x3b0bbd87	0.0021322684
33	0xbf53ee1d	-0.8278521
34	0xbd91a76a	-0.0711201
35	0xbe4ee768	-0.20205462
36	0xbfa87714	-1.316134
37	0xbfc10ce6	-1.5082061
38	0xbfa5b141	-1.2944719
39	0x3d8eb6ac	0.06968436
40	0x3d9750ca	0.07388456
41	0x3fc9e3cc	1.5772643
42	0xbfd9fc1a	-1.703006
43	0x3eab3fdb	0.33447155
44	0x3e83d4fc	0.25748432
45	0xc012012c	-2.2813215
46	0xbf18e4f7	-0.5972437
47	0x3e76bdc6	0.2409583
48	0x3d49a038	0.049225062
49	0x3d328b9c	0.043590173
50	0x3e565f68	0.20934832
51	0x3f282f7d	0.6569746
52	0x3effc3c9	0.4995406
53	0x3ea39ca8	0.31955457
54	0x3ec81e2d	0.39085522
55	0xbe9064e4	-0.28201973
56	0xbf3ac197	-0.72951645
57	0x3d5e1bbc	0.05422567
58	0xbdf43c41	-0.11925555
59	0x3db30d02	0.087427154
60	0x3e282f1f	0.16424225
61	0x3e0d4158	0.13794458
62	0xbcf35dc2	-0.029707793
63	0x3cf0ecd0	0.029409796
64	0xbdf7cf38	-0.12100071
65	0x3e11b7c8	0.14230263
66	0x3da9ede3	0.082973264
67	0x3d4bc824	0.049751416
68	0x3ece2fea	0.4027093
69	0xbdaee1d8	-0.0853917
70	0xbfa76a09	-1.3079234
71	0x3df79e30	0.12090719
72	0x3f3b990b	0.732804
73	0xbccd4468	-0.025057033
74	0x3e0e1a41	0.13877203
75	0x3db0b4ea	0.086282566
76	0x3db69d66	0.0891674
77	0xbeb61a62	-0.35567003
78	0x3e3118f4	0.17294675
79	0x3ec2a959	0.38019827
80	0x3e07c5b0	0.13259006
81	0x3ef084ba	0.46976262
82	0xbce49ec7	-0.027907742
83	0x3e3c6f50	0.18401837
84	0x3f4587eb	0.7716052
85	0xbe6b92a1	-0.23005153
86	0xbfedcb20	-1.8577614
87	0x3db69238	0.08914608
88	0x3ee1ad1d	0.44077387
89	0xbfcce0de	-1.6006124
90	0xbfebb21d	-1.8413731
91	0xbabc00a6	-0.0014343455
92	0x3e07298a	0.1319944
93	0x3ff82a8e	1.9387987
94	0xbf9136da	-1.1344864
95	0xbc413eb3	-0.011794734
96	0xbe9fe94e	-0.31232685
97	0x3eda030d	0.42580453
98	0x3d5422b8	0.051790923
99	0xbedaa55a	-0.42704278
100	0xbefd8706	-0.49517077
101	0xbee71349	-0.451319
102	0x3c99c313	0.018769776
103	0x3e4c5f03	0.19958119
104	0x3e4d7449	0.2006389
105	0xbe0a83eb	-0.13526885
106	0x3df57881	0.11985875
107	0x3dd0f1da	0.102023795
108	0xbd533e12	-0.051572867
109	0x3dfe0208	0.12402731
110	0x3e681233	0.22663192
111	0x3d6b7c90	0.05749184
112	0xbe08cdce	-0.13359758
113	0xbdfbaad5	-0.12288443
114	0xbc88d3f0	-0.016702622
115	0xbd3ccb2a	-0.04609219
116	0xbf0bc4be	-0.5459708
117	0x3e082532	0.13295439
118	0x3f247d4a	0.64253676
119	0x3e02f148	0.12787354
120	0xbe8d49e6	-0.27595443
121	0x3de39424	0.1111224
122	0x3dddcd24	0.10830143
123	0xbd561eb8	-0.05227539
124	0x3e624965	0.2209831
125	0xbdd42a98	-0.103596866
126	0x3cc18c33	0.023626423
127	0xbec3baaa	-0.3822835
128	0x3dfdb04a	0.1238714
129	0xbeff2da8	-0.4983952
130	0x3dc2493c	0.094866246
131	0x3f0869be	0.5328635
132	0xbf4253d7	-0.7590918
133	0xbf7c03f7	-0.9844355
134	0xbf94919d	-1.1606938
135	0x3ce401a5	0.027832815
136	0x3d9287ee	0.07154833
137	0x3f879333	1.0591797
138	0xbf9ebda1	-1.240162
139	0x3e0ad772	0.13558748
140	0x3de3d54f	0.1112467
141	0xc017247c	-2.3616018
142	0xbf601d8a	-0.87545073
143	0x3e1d1606	0.15340433
144	0x3e4989c1	0.19681455
145	0x3df503e9	0.119636364
146	0xbe831ab5	-0.25606313
147	0xbde98580	-0.11402416
148	0x3f0a3036	0.53979814
149	0x3f2563af	0.6460523
150	0x3d8f2d7a	0.06991096
151	0x3ce8f53e	0.028437253
152	0x3ef32a43	0.4749318
153	0xbe10d22d	-0.14142676
154	0x3e068d44	0.13139826
155	0x3d9e72cc	0.077367395
156	0xbd960f7a	-0.07327171
157	0xbd9d1994	-0.07670894
158	0x3eae4ae1	0.34041503
159	0x3d7f8a20	0.062387586
160	0xbe115a4e	-0.14194605
161	0x3e137432	0.14399794
162	0x3dacba1e	0.084339365
163	0xbdfca093	-0.123353146
164	0xbf2ecb2e	-0.6827878
165	0x3d1ae344	0.037814394
166	0x3e873b92	0.26412636
167	0x3d9cac6a	0.07650073
168	0xbea757a0	-0.3268404
169	0xbdd8c974	-0.10585299
170	0x3f241ba6	0.6410469
171	0x3d7099f0	0.058740556
172	0x3f009c6c	0.5023868
173	0xbea04486	-0.3130228
174	0x3f313355	0.6921895
175	0xbebe4bde	-0.37167257
176	0xbe7786f4	-0.24172574
177	0xbf27d28b	-0.6555564
178	0xbe31853b	-0.1733598
179	0x3ea388af	0.3194022
180	0xbf98a11b	-1.1924165
181	0xbf5a58bd	-0.85291654
182	0xbee3f603	-0.4452363
183	0xbd3fd150	-0.046830475
184	0xbe2386b9	-0.15969361
185	0x3fb70286	1.4297645
186	0xbf137600	-0.5760193
187	0x3e28e2bc	0.16492742
188	0xbd7bb67e	-0.061453335
189	0xc02f723f	-2.741348
190	0xbf06fada	-0.5272652
191	0xbda7af6d	-0.08187757
192	0x3ecce2b8	0.40016723
193	0x3e95b1a2	0.29237086
194	0x3e9df662	0.30852038
195	0x3f02e78c	0.5113456
196	0x3e0a291d	0.13492246
197	0xbd42080f	-0.047370967
198	0x3f0aa64c	0.5416
199	0xbe54257b	-0.20717423
200	0xbf663291	-0.8992091
201	0x3c9ecdb8	0.019385204
202	0x3c129605	0.0089469
203	0x3ddd7164	0.10812643
204	0x3da07a46	0.07835822
205	0x3b40aa80	0.00293985
206	0xbf148a33	-0.58023375
207	0x3d86c39a	0.06580277
208	0x3c7cd6b1	0.015432046
209	0xbb6a69c0	-0.0035768598
210	0xbe068ce5	-0.13139684
211	0xbce646a4	-0.028109856
212	0x3ede53de	0.4342336
213	0xbddac448	-0.10681969
214	0xbf90525a	-1.1275132
215	0x3de7ac1c	0.11312124
216	0x3f916521	1.1358987
217	0xbcd37814	-0.025814094
218	0x3e89cd3c	0.26914394
219	0xbdfe74e3	-0.12424638
220	0x3e6f2526	0.23354015
221	0xbe9a4a60	-0.3013487
222	0x3d7fbb64	0.06243457
223	0x3ede7c0c	0.43454015
224	0x3e7a4ce0	0.24443388
225	0x3e6f6aff	0.2338066
226	0xbe355184	-0.17706877
227	0x3fbd2abf	1.477867
228	0x3f6584be	0.89655674
229	0xbe667921	-0.22507145
230	0xbfe4ebb3	-1.788443
231	0xbd184f0c	-0.03718476
232	0x3e566e25	0.20940454
233	0xbf84380b	-1.0329603
234	0xbfeb5305	-1.838471
235	0x3ec54a4b	0.38533244
236	0x3e869ef8	0.2629316
237	0x3fd31e30	1.6493587
238	0xbfb30f11	-1.3988973
239	0x3e3bd571	0.1834314
240	0x3e421b41	0.18955709
241	0xbe67a054	-0.22619754
242	0xbd1edd88	-0.038785487
243	0x3e7f9aea	0.24961439
244	0x3ee15681	0.4401131
245	0x3ed98fea	0.4249261
246	0xbc2c7479	-0.010525816
247	0xbe5df268	-0.21674502
248	0xbecc5cba	-0.39914495
249	0x3da4b702	0.080427185
250	0xbe13b5fd	-0.14424892
251	0x3db41d7e	0.08794688
252	0x3dbf9fc8	0.09356648
253	0xbdcfdf74	-0.10150042
254	0x3e727c7b	0.23680298
255	0xbe12f776	-0.14352211

features.layers.1.logic.1.layer.0.mlp.0.bias f4 [8]
0	0x3d911342	0.07083751
1	0xbd77b1a0	-0.06047213
2	0x3d3bec46	0.045879625
3	0xbcabeb19	-0.020986127
4	0x3dd6c7ee	0.10487352
5	0xbe4dbacf	-0.20090793
6	0x3e2fa8c1	0.17154218
7	0x3c976587	0.01848103

features.layers.1.logic.2.layer.0.mlp.0.weight f4 [8, 56]
0	0x3ec3fc12	0.38278252
1	0x3ef360b6	0.47534722
2	0x3ea9c08d	0.33154717
3	0x3ea3308c	0.31872976
4	0x3f00fac7	0.50382656
5	0x3f1b961b	0.6077592
6	0x3ec3312b	0.3812345
7	0x3eb4534b	0.35219797
8	0x3f382d38	0.71944
9	0x3e80be00	0.25144958
10	0x3f8fbef6	1.1230152
11	0x3e2e888d	0.17044277
12	0xbe0b6181	-0.13611414
13	0xbee7e0e2	-0.4528876
14	0xbf20f22e	-0.62869537
15	0xbf030753	-0.5118305
16	0xbdd746d2	-0.10511555
17	0x3edf5c0a	0.43624908
18	0x3f32ea91	0.6988917
19	0x3fad5303	1.3540958
20	0x3f410eab	0.75413007
21	0x3f830088	1.0234537
22	0x3e076f75	0.13226111
23	0xbf12e523	-0.57380885
24	0x3f76a288	0.96341753
25	0xbf5812a7	-0.8440346
26	0x3f801e3b	1.0009226
27	0xbe88e36f	-0.26736018
28	0xbeec9e8f	-0.4621472
29	0x3f4911e2	0.7854291
30	0x3e9d848d	0.3076519
31	0x3f1d8acd	0.6153992
32	0x3e2a0bb7	0.16606031
33	0x3e15dc3b	0.14634793
34	0xbeae1dee	-0.3400721
35	0x3eb458a6	0.35223883
36	0xbda7428b	-0.08166989
37	0x3efe0bb5	0.49618307
38	0x3f3ab447	0.7293133
39	0x3fa4924e	1.2857149
40	0xbe017e29	-0.12645783
41	0xbe8e8bfa	-0.2784117
42	0xbf17b5b6	-0.59261644
43	0xbefe7e84	-0.497059
44	0x3f3d151d	0.7386034
45	0x3e87bc23	0.26510724
46	0x3f991826	1.1960495
47	0x3e614ef5	0.22002776
48	0x3eff101b	0.49816975
49	0x3c73e9ea	0.014887312
50	0xbee657a0	-0.44988728
51	0xbeaef918	-0.34174418
52	0x3f23c50c	0.63972545
53	0xbf28b024	-0.6589377
54	0x3e198f04	0.14995962
55	0xbea849b6	-0.32868737
56	0xbf3a67cf	-0.7281465
57	0xbe4cd858	-0.20004404
58	0xbe84a47c	-0.25906742
59	0xbee50d68	-0.4473679
60	0xbf0088eb	-0.5020892
61	0xbf2bbdf9	-0.6708675
62	0xbee429b2	-0.4456306
63	0xbe314498	-0.17311323
64	0xbf2f6156	-0.685079
65	0xbea7231e	-0.3264398
66	0xbfa54460	-1.2911491
67	0xbea567d8	-0.3230579
68	0xbe6d3737	-0.23165594
69	0x3f127909	0.57215935
70	0x3f3e873e	0.74425113
71	0x3eea8add	0.4580907
72	0x3cce8c34	0.025213338
73	0xbef47688	-0.47746682
74	0xbf4bd608	-0.7962346
75	0xbfad2004	-1.3525395
76	0xbf748034	-0.9550812
77	0xbfcadf5f	-1.5849417
78	0xbe5bdf7b	-0.2147197
79	0x3f1c5632	0.61069024
80	0xbf93905d	-1.1528431
81	0x3f6f002b	0.9335963
82	0xbf53d51b	-0.8274705
83	0x3ed4ffea	0.41601497
84	0x3edb4c6d	0.42831746
85	0xbf0f7d89	-0.56050926
86	0xbe5bf23a	-0.21479121
87	0xbef51f50	-0.47875452
88	0xbe5b0889	-0.21389975
89	0xbe894561	-0.26810744
90	0x3e97c440	0.29641914
91	0xbf1810ac	-0.5940044
92	0x3db77479	0.08957762
93	0xbee2af47	-0.4427435
94	0xbf302744	-0.68809915
95	0xbfc505fe	-1.5392454
96	0xbdcf3ae1	-0.10118652
97	0x3f060950	0.5235796
98	0x3f15055a	0.5821129
99	0x3f1d8bf1	0.6154166
100	0xbf4a1308	-0.7893529
101	0xbec976dd	-0.39348498
102	0xbfaba0c6	-1.3408439
103	0xbeb03cbb	-0.34421334
104	0xbf453839	-0.77038914
105	0xbe746920	-0.23868227
106	0x3e9537d0	0.29144144
107	0x3e90d6d9	0.28288916
108	0xbf55d566	-0.83528745
109	0x3f03d3de	0.5149516
110	0xbd340149	-0.043946538
111	0x3e8aca66	0.27107543
112	0xbf6d001b	-0.92578286
113	0xbcf8aec7	-0.030356778
114	0xbcf36d97	-0.029715342
115	0x3e3e8cfd	0.1860847
116	0x3e8d6973	0.27619514
117	0x3dc9bcc4	0.09850457
118	0xbf1af689	-0.6053243
119	0x3ccc9baa	0.02497657
120	0xbfbe72c9	-1.487878
121	0xbe301a8e	-0.1719763
122	0x3e646333	0.22303466
123	0x3ee5178c	0.44744527
124	0xbcd13bbf	-0.025541184
125	0x3e9cfcc0	0.30661583
126	0xbf7800fb	-0.96876496
127	0xbf838901	-1.0276185
128	0x3edcf33c	0.43154323
129	0x3d957a4f	0.07298719
130	0x3e54f1a3	0.20795302
131	0xbe9d0740	-0.30669594
132	0x3d84cddc	0.06484577
133	0xbf188d21	-0.59590346
134	0xbfa27571	-1.269209
135	0xbf8e18fd	-1.1101376
136	0x3e4ed431	0.20198132
137	0xbf739dfe	-0.9516295
138	0xbf83675d	-1.0265919
139	0xbe4a89f0	-0.19779181
140	0xbdabf783	-0.083968185
141	0x3e8f954f	0.280436
142	0xbddabe3f	-0.10680818
143	0xbf1ae063	-0.60498637
144	0xbebcd551	-0.36881498
145	0xbdd182bd	-0.102300145
146	0xbe7eb1e1	-0.24872543
147	0x3dc83f2e	0.097776756
148	0x3e9c1c1a	0.3049019
149	0x3df0e7f3	0.11762991
150	0x3e193e1c	0.14965099
151	0xbeb5f76c	-0.3554033
152	0xbd73197f	-0.059350487
153	0x3e94144f	0.28921744
154	0xbf93ece6	-1.1556671
155	0xbf64ad2d	-0.89326745
156	0xbfc1ac14	-1.5130639
157	0xbde5ff1c	-0.11230299
158	0x3dfdf698	0.1240055
159	0x3f28c2bd	0.6592215
160	0x3d48677c	0.048926815
161	0x3f1061bc	0.5639913
162	0xbda1acc8	-0.078942835
163	0xbfa14bba	-1.2601235
164	0x3ea1b0b1	0.31580117
165	0xbfd5849c	-1.6681094
166	0x3f1f6bd9	0.6227394
167	0xbfd3645d	-1.6515003
168	0xbf2a71b2	-0.66579735
169	0xbe05d0bd	-0.13067909
170	0xbdcfaa72	-0.10139932
171	0xbe92ca2c	-0.2866987
172	0xbf259a13	-0.64688224
173	0xbee6e448	-0.4509604
174	0xbeef9107	-0.46790335
175	0xbdce23c3	-0.10065415
176	0xbf145ffb	-0.57958955
177	0xbedd2f7a	-0.43200284
178	0xbfbcde66	-1.4755371
179	0xbf741f15	-0.9535993
180	0xbef094a8	-0.46988416
181	0x3efb1e34	0.4904648
182	0x3f36aaed	0.7135456
183	0x3eefe4d2	0.46854264
184	0xbc639c34	-0.013892222
185	0xbf40691a	-0.7516037
186	0xbf40ff91	-0.75389963
187	0xbfe4b795	-1.7868525
188	0xbf85f788	-1.0466166
189	0xbfdccf16	-1.7250698
190	0xbe12aa13	-0.1432269
191	0x3f117a9b	0.56827706
192	0xbf8efc25	-1.1170698
193	0x3f3a74cc	0.7283447
194	0xbf40e7d0	-0.7535372
195	0x3eba56dc	0.36394393
196	0xbe2682c4	-0.1626082
197	0xbebe766a	-0.37199718
198	0xbe3a1bb0	-0.18174624
199	0xbe049a45	-0.12949474
200	0xbeb3407f	-0.35010144
201	0xbe8146b7	-0.25249264
202	0xbe477c84	-0.19481093
203	0xbe706df4	-0.23479444
204	0x3e2cc678	0.16872585
205	0xbf3ea7fa	-0.7447506
206	0xbf6bc488	-0.9209676
207	0xbfd08c55	-1.6292826
208	0xbebdd865	-0.37079158
209	0x3ef7536b	0.4830583
210	0x3f344780	0.704216
211	0x3eb09d24	0.3449489
212	0xbf2f28dd	-0.6842173
213	0xbec81093	-0.39075145
214	0xbfb5fed7	-1.4218396
215	0xbf64b305	-0.8933566
216	0xbf3ef436	-0.74591386
217	0xbede60b2	-0.43433148
218	0x3ea5e7ab	0.3240331
219	0x3eb09920	0.34491825
220	0xbf5f167e	-0.87143695
221	0x3f10712e	0.564227
222	0x3d850b86	0.064963385
223	0x3e83dae7	0.25752947
224	0xbf0aa5c8	-0.5415921
225	0xbf342b29	-0.7037836
226	0xbef804aa	-0.48441058
227	0xbf439a15	-0.76406986
228	0xbe6f071a	-0.23342553
229	0xbdb1bc5b	-0.08678504
230	0xbf24e941	-0.6441842
231	0xbf1a998c	-0.60390544
232	0xbe0139af	-0.12619661
233	0xbf86ab65	-1.0521055
234	0x3dc2f7b0	0.09519899
235	0xbd95717f	-0.07297038
236	0xbe781137	-0.24225317
237	0x3ef0512c	0.4693693
238	0xbf05fbc0	-0.52337265
239	0xbe99d873	-0.3004795
240	0xbdb2bdfa	-0.087276414
241	0xbd91df28	-0.07122642
242	0xbe8d6fa7	-0.27624246
243	0xbdfc1d2c	-0.123102516
244	0xbe45e63b	-0.19326107
245	0xbf1d3d48	-0.6142163
246	0xbf3c174d	-0.73473054
247	0xbf4d1bb5	-0.801204
248	0xbe3eef56	-0.18645987
249	0xbf1fb78c	-0.62389445
250	0xbed68660	-0.41899395
251	0xbf2775b9	-0.65414006
252	0xbf3cc930	-0.7374449
253	0xbf1f16cf	-0.6214418
254	0xbf82dcf8	-1.0223684
255	0xbf43634f	-0.7632341

features.layers.1.logic.2.layer.0.mlp.0.bias f4 [8]
0	0x3ecb631c	0.39724052
1	0xbf07e211	-0.53079325
2	0xbeb6a958	-0.35676074
3	0xbee66156	-0.44996136
4	0xbf5bf5df	-0.85922045
5	0xbf19e12c	-0.6010921
6	0xbed502bb	-0.41603646
7	0xbf32e3fe	-0.6987914

features.layers.2.logic.0.layer.0.mlp.0.weight f4 [8, 40]
0	0x3ea3a16d	0.31959096
1	0x3e4a3720	0.19747591
2	0x3dd73e38	0.10509914
3	0x3e9c4368	0.30520177
4	0x3ebbeb6e	0.36703056
5	0x3ea79c15	0.3273627
6	0x3e0aeaa9	0.13566078
7	0x3ec7b71d	0.39006892
8	0xbf8169e7	-1.0110444
9	0x3e399d9b	0.18126528
10	0x3cbb68cc	0.02287712
11	0x3c6933ea	0.014233569
12	0x3c8e143c	0.017343633
13	0x3e319e6c	0.1734559
14	0x3bbb27c0	0.0057115257
15	0xbe28682e	-0.16445991
16	0xbe9c16b0	-0.3048606
17	0x3d13f7d4	0.03612502
18	0xbf06257f	-0.52400964
19	0xbd20afbb	-0.03923009
20	0xbef18a03	-0.47175607
21	0xbe3edc25	-0.18638666
22	0xbd90bd95	-0.0706741
23	0x3deefb54	0.11669031
24	0xbe9dce88	-0.30821633
25	0xbe1a9fa7	-0.15099965
26	0xbf781719	-0.96910244
27	0xbcb1c83f	-0.02170193
28	0xbe726a8e	-0.2367346
29	0xbc183551	-0.009290055
30	0xbe3a498f	-0.18192123
31	0xbdcea1f1	-0.100894816
32	0xbf5bcee1	-0.8586255
33	0x3d8711b8	0.065951765
34	0xbe2790f7	-0.16363893
35	0xbdb7099c	-0.0893738
36	0xbe13866e	-0.1440675
37	0xbe90009d	-0.28125468
38	0xbf7c7868	-0.98621225
39	0x3e9a1961	0.30097488
40	0x3e710a19	0.23539008
41	0x3d54a44f	0.05191451
42	0x3d86d728	0.065840065
43	0x3e084c15	0.13310273
44	0xbc9dc883	-0.01926065
45	0x3d3054f2	0.04304976
46	0x3e2fbcda	0.17161885
47	0x3d71b47e	0.05901002
48	0xbf683654	-0.907079
49	0x3de6fac5	0.11278299
50	0xbda69165	-0.081332006
51	0xbd29434a	-0.041323937
52	0xbe7b25dc	-0.24526161
53	0xbd5e5a6c	-0.05428545
54	0xbdb592f0	-0.08865917
55	0xbe0bf4a4	-0.13667542
56	0xbe8ad4d0	-0.27115488
57	0xbdd71b56	-0.10503261
58	0xbefe92a0	-0.4972124
59	0xbd5cd3f3	-0.053913068
60	0xbf27b24e	-0.65506446
61	0xbe67a518	-0.22621572
62	0xbe18d52a	-0.14925066
63	0x3e86e581	0.26346973
64	0xbe35d67f	-0.17757605
65	0xbe392195	-0.18079217
66	0xbf80d88c	-1.0066085
67	0x3cdf8dcf	0.0272893
68	0xbe915a49	-0.28389195
69	0x3a50000b	0.0007934577
70	0xbec65a94	-0.3874098
71	0xbe133f11	-0.14379527
72	0xbf316214	-0.6929028
73	0xbe43ba4b	-0.19114034
74	0xbe98dff8	-0.29858375
75	0xbd897756	-0.06712215
76	0xbecba9b2	-0.39777905
77	0xbe8d1fcd	-0.27563325
78	0xbf647127	-0.89235157
79	0xbc815322	-0.015786711
80	0xbdc27352	-0.09494652
81	0xbd8a1ddb	-0.06743976
82	0x3de6efaa	0.11276181
83	0x3c9882d2	0.018617067
84	0x3d36b001	0.044601444
85	0xbd299113	-0.04139812
86	0x3e02b0d6	0.1276277
87	0x3e46e3ab	0.19422786
88	0xbf59daa9	-0.85099274
89	0xbd1f2223	-0.038850915
90	0xbd19f5fa	-0.037588097
91	0xbe072305	-0.13196953
92	0xbd278f56	-0.04090818
93	0x3d0af507	0.033925083
94	0xbe63ad1e	-0.22234008
95	0xbdce73c1	-0.10080672
96	0xbea7b083	-0.32751855
97	0xbe8503d6	-0.2597949
98	0xbec87321	-0.39150336
99	0xbe5e8a20	-0.21732378
100	0xbf336b20	-0.70085335
101	0xbeb8ee13	-0.36119136
102	0x3d98d36c	0.074622005
103	0x3d09b7ce	0.033622555
104	0xbed13e5f	-0.40867898
105	0xbe9eed8c	-0.3104061
106	0xbf8ef448	-1.1168299
107	0xbddd2277	-0.10797589
108	0xbea37607	-0.31925985
109	0xbe5a8edb	-0.21343558
110	0xbecc0e07	-0.39854452
111	0xbec3aeb0	-0.38219213
112	0xbf46bba1	-0.7763005
113	0xbe0f0abe	-0.13968942
114	0xbe970c0b	-0.29501376
115	0x3c429731	0.011876867
116	0xbead0873	-0.3379551
117	0xbe0e5fab	-0.13903682
118	0xbf51987d	-0.81873304
119	0xbd8516b1	-0.06498469
120	0x3ec30951	0.38093045
121	0x3ec4088d	0.38287774
122	0x3e8100ec	0.25196016
123	0x3ec7e04f	0.3903832
124	0x3ea638d6	0.32465237
125	0x3e78c92b	0.2429549
126	0x3ee3501a	0.4439705
127	0x3eec7903	0.46186075
128	0xbf84d6bf	-1.0378035
129	0x3d279944	0.04091765
130	0x3e069cc5	0.1314574
131	0x3d2cba7f	0.042170044
132	0x3d69d801	0.057090763
133	0x3e571e50	0.21007657
134	0x3d8f1bab	0.06987699
135	0xbd81158f	-0.0630294
136	0xbe1c8b21	-0.15287448
137	0x3ddfc272	0.109257594
138	0xbe9ed042	-0.31018263
139	0xbe552dba	-0.20818225
140	0xbf0809cc	-0.5313995
141	0xbe56548c	-0.2093069
142	0x3e048b02	0.12943652
143	0x3e566f83	0.20940976
144	0xbed23991	-0.41059545
145	0xbe8a1503	-0.26969156
146	0xbf890c00	-1.0706787
147	0x3d997ff6	0.0749511
148	0xbe964d6d	-0.29355946
149	0xbd521e81	-0.051298622
150	0xbeab2df6	-0.33433503
151	0xbe595712	-0.21224621
152	0xbf42d25b	-0.76102227
153	0x3e390a7e	0.18070409
154	0xbd9cc3f3	-0.07654562
155	0xbe163ce2	-0.14671662
156	0xbe84ce2f	-0.25938556
157	0xbe983397	-0.2972686
158	0xbf7aa1fd	-0.97903425
159	0x3db4a3d4	0.0882031
160	0xbdb4c523	-0.08826663
161	0x3bd4269f	0.0064743306
162	0x3e13aeda	0.1442217
163	0xbd6704fe	-0.056401245
164	0x3e12936f	0.14314054
165	0x3e439ad0	0.19102025
166	0x3b2740c2	0.0025520776
167	0x3d2b6d83	0.041852485
168	0xbf7f09c8	-0.996243
169	0xbd7fba11	-0.062433306
170	0xbe955113	-0.29163417
171	0xbe11c10a	-0.14233795
172	0xbdfa5b9b	-0.122245036
173	0xbb22662b	-0.0024780135
174	0xbeda0470	-0.4258151
175	0xbeb3f055	-0.35144296
176	0xbe98f50f	-0.29874465
177	0xbd1ec33e	-0.038760416
178	0xbea795b3	-0.327314
179	0xbeb577b8	-0.354429
180	0xbf2a2c98	-0.66474295
181	0xbe0a4015	-0.13501008
182	0xbd204a48	-0.03913334
183	0x3e884db8	0.26621795
184	0xbec2639b	-0.37966618
185	0xbeef4f6d	-0.46740285
186	0xbf845163	-1.0337337
187	0x3d07ee71	0.03318638
188	0xbead6718	-0.33867717
189	0xbd775fdd	-0.060394157
190	0xbf09110b	-0.5354163
191	0xbe22ffa9	-0.15917839
192	0xbf250e99	-0.644754
193	0xbd18b244	-0.037279382
194	0xbea29cc8	-0.3176024
195	0xbe89cb68	-0.26913
196	0xbe188b02	-0.14896777
197	0xbe64a165	-0.22327192
198	0xbf4a5cf1	-0.7904807
199	0xbd39f279	-0.045397256
200	0xbd7f5847	-0.062340047
201	0x3d565a27	0.05233207
202	0x3e076504	0.13222128
203	0xbe0d1bdc	-0.13780159
204	0x3c8f68f1	0.017506095
205	0xbe127095	-0.14300759
206	0x3df2f0c7	0.11862331
207	0x3df8ceee	0.12148844
208	0xbf83ab69	-1.0286685
209	0x3d6bbe2b	0.057554405
210	0xbe534dd4	-0.20635158
211	0xbe1e7998	-0.15476072
212	0xbdf87f20	-0.12133622
213	0x3d9af672	0.07566537
214	0xbe962e27	-0.29332086
215	0xbec1ba1e	-0.3783731
216	0xbe981af2	-0.29708058
217	0xbe573cc4	-0.21019274
218	0xbf08f025	-0.5349143
219	0xbeb7ecfa	-0.35922986
220	0xbf3289cb	-0.69741505
221	0xbe4fa51e	-0.20277831
222	0xbc35ca77	-0.011095635
223	0x3d185a08	0.037195235
224	0xbe9620b3	-0.29321823
225	0xbebb39ab	-0.36567435
226	0xbf9532a7	-1.1656083
227	0xbd8e190a	-0.069383696
228	0xbed52fdc	-0.41638076
229	0xbe5a5190	-0.21320176
230	0xbf09cd10	-0.53828526
231	0xbee71702	-0.4513474
232	0xbf0798d3	-0.52967566
233	0xbe1febbd	-0.15617271
234	0xbe006abd	-0.12540717
235	0xbe4936ae	-0.19649765
236	0xbe48c8c3	-0.19607835
237	0xbea73c9c	-0.3266343
238	0xbf2a06da	-0.66416705
239	0x3de3e3f6	0.111274645
240	0x3debc7e5	0.11512736
241	0x3eb3746d	0.35049763
242	0x3c6c1381	0.014408947
243	0x3db735a6	0.089457795
244	0x3e873293	0.26405773
245	0x3e06e7f8	0.13174427
246	0x3e98f9d0	0.29878092
247	0x3eb8609a	0.360112
248	0xbf7188d1	-0.9434939
249	0x3e0d0dce	0.13774797
250	0xbe09ff1b	-0.13476221
251	0xbd98b2e5	-0.074559964
252	0xbd61feb7	-0.055174556
253	0x3d5faad1	0.054606263
254	0xbe9804cc	-0.2969116
255	0xbe5f5b50	-0.21812177

features.layers.2.logic.0.layer.0.mlp.0.bias f4 [8]
0	0x3d62ec3c	0.055401072
1	0xbe241b68	-0.1602608
2	0xbe59952b	-0.2124831
3	0xbdb4c982	-0.08827497
4	0xbe990c50	-0.29892206
5	0xbcf26102	-0.029587273
6	0xbc59dab7	-0.013296775
7	0xbe009ce6	-0.12559852

features.layers.2.logic.1.layer.0.mlp.0.weight f4 [8, 80]
0	0xbd4be2a9	-0.049776707
1	0xbda54802	-0.08070375
2	0xbe5ce17d	-0.21570392
3	0xbdf9ed69	-0.122034855
4	0xbe116e37	-0.142022
5	0xbe1eca69	-0.15506901
6	0xbcd9ffdd	-0.026611263
7	0xbb34afda	-0.0027570636
8	0x3e88b5ca	0.26701194
9	0xbd9079f7	-0.07054513
10	0xbe308581	-0.17238428
11	0xbf1167fc	-0.5679929
12	0xbf03afa7	-0.514399
13	0xbe8e1d37	-0.27756664
14	0x3ec96e53	0.39341983
15	0x3e75c861	0.2400222
16	0x3e095be7	0.13413964
17	0xbf251345	-0.6448253
18	0x3de35d37	0.11101764
19	0x3f11dd0a	0.56977904
20	0xbf52348e	-0.8211144
21	0x3c5be172	0.01342045
22	0x3e5c47a0	0.21511698
23	0xbf56e778	-0.83946943
24	0x3f0dcace	0.5538758
25	0xbdb67512	-0.08909048
26	0xbdfe4141	-0.1241479
27	0xbcef7044	-0.029228337
28	0xbdcc6405	-0.09980015
29	0xbcce0a70	-0.025151461
30	0xbdc79648	-0.09745461
31	0x3da85898	0.08220023
32	0x3c8fe9f1	0.017567607
33	0x3dbd719a	0.092501834
34	0xbe0e33ae	-0.13886902
35	0xbc4059b0	-0.011740133
36	0xbe4332e1	-0.19062378
37	0xbb672ea0	-0.0035275593
38	0x3eb21dd2	0.34788376
39	0xb9bc9600	-0.00035969913
40	0xbf7ca0be	-0.98682773
41	0xbce5e588	-0.02806355
42	0x3ea4b95c	0.32172668
43	0x3dc8e556	0.09809367
44	0x3e92615e	0.2858991
45	0xbe732ade	-0.23746821
46	0x3eb7b4a2	0.3588
47	0xbe1cf622	-0.15328267
48	0x3d839d8a	0.064265326
49	0xbb7f6720	-0.003897138
50	0x3e006d43	0.1254168
51	0x3e1eeea9	0.15520729
52	0xbeca7f15	-0.3955008
53	0xbf237cb9	-0.63862187
54	0x3d8d6e41	0.06905795
55	0xbd34b859	-0.04412112
56	0xbdb4dfeb	-0.088317715
57	0x3fc7a56d	1.5597359
58	0xbd71ff5a	-0.059081413
59	0xbe16ca17	-0.14725529
60	0xbe89a5a8	-0.26884198
61	0xbf968f6d	-1.176252
62	0xbe517d18	-0.20457876
63	0xbd894d3a	-0.06704183
64	0x3d182c6c	0.03715174
65	0xbea1589f	-0.31512925
66	0x3e1c7bee	0.1528165
67	0x3c59c872	0.013292419
68	0xbf0556ae	-0.5208539
69	0x3e0261dd	0.12732644
70	0x3cf0dabf	0.029401181
71	0xbd3cd344	-0.046099916
72	0xbedf490c	-0.43610418
73	0x3e416a91	0.18888308
74	0x4048c3fc	3.136962
75	0x3d360a15	0.04444321
76	0xbf0b54ad	-0.5442608
77	0xbe81ad7f	-0.2532768
78	0xbf8df61c	-1.1090732
79	0xbec6190f	-0.38690993
80	0x3df8be37	0.121456556
81	0x3e0a4f3f	0.13506792
82	0x3df64388	0.12024599
83	0x3de4ee65	0.11178283
84	0x3e24681c	0.1605534
85	0x3e0d7c81	0.13817026
86	0x3e25b6a7	0.16182958
87	0x3e778a1b	0.24173777
88	0x3e2d1906	0.16904077
89	0x3e875845	0.26434532
90	0x3e0c1366	0.13679275
91	0x3eb5c0de	0.35498708
92	0x3dccbf4b	0.09997424
93	0x3d32c01c	0.04364024
94	0x3ed90ea9	0.42393997
95	0xbe3af08f	-0.18255828
96	0xbed57937	-0.41694042
97	0x3f33630a	0.70072997
98	0xbf07ad6c	-0.52998996
99	0xbf14c61d	-0.58114797
100	0x3f5cb5bd	0.8621481
101	0x3c871961	0.016491594
102	0xbd2b45bc	-0.04181455
103	0x3f2fb6a8	0.68638086
104	0xbf447a96	-0.7674955
105	0x3da0afc8	0.078460276
106	0x3cf14e7f	0.029456375
107	0xbca42784	-0.020038374
108	0xbd771ed5	-0.060332138
109	0xbda88aee	-0.08229624
110	0xbec69478	-0.38785148
111	0x3d7b24cc	0.06131439
112	0x3dcc74eb	0.09983238
113	0xbddd1751	-0.10795463
114	0x3dceec5c	0.10103676
115	0x3d575658	0.05257258
116	0xbc517b7c	-0.012785789
117	0x3cd71e08	0.026259437
118	0xbf14cb34	-0.58122563
119	0xbc26cae8	-0.010180213
120	0x3f8ebc0c	1.1151137
121	0x3dc13428	0.09433776
122	0x3de52d55	0.11190287
123	0xbd62834f	-0.055301007
124	0x3e6389db	0.22220556
125	0xbe425391	-0.1897719
126	0x3e91ca54	0.28474677
127	0x3ec4ae4d	0.3841423
128	0x3e57ebbd	0.21086021
129	0x3e1abaf4	0.1511038
130	0xbe0aa674	-0.1354006
131	0x3f0986ed	0.53721505
132	0x3f407b17	0.7518782
133	0xbea054cf	-0.31314704
134	0xbf6434f7	-0.8914332
135	0xbd2cb0ab	-0.04216067
136	0x3e2ce6da	0.16884938
137	0xbecb690c	-0.39728582
138	0xbfa0f019	-1.2573272
139	0x3d9390de	0.072053656
140	0x3e9c5514	0.3053366
141	0x3f443d28	0.7665582
142	0xbf3988cf	-0.7247438
143	0xbce6ff43	-0.02819789
144	0xbe07a773	-0.1324747
145	0x3f8513cd	1.0396668
146	0xbf8fed4c	-1.1244292
147	0x3d749f28	0.059722096
148	0xbed0fc07	-0.40817282
149	0x3fb40c70	1.4066296
150	0xbf94c730	-1.1623287
151	0x3d1f1c70	0.03884548
152	0x3de2bc97	0.11071127
153	0xbdac9817	-0.08427446
154	0xbfc052b2	-1.5025237
155	0xbe560b19	-0.20902671
156	0xbf0dea0a	-0.5543524
157	0x3e1b14b0	0.1514461
158	0xbea0c558	-0.3140056
159	0xbe97efdb	-0.29675183
160	0xbe378796	-0.17922816
161	0xbe9ce951	-0.30646756
162	0xbe2cdb62	-0.16880563
163	0xbe804336	-0.25051278
164	0xbe00665f	-0.12539051
165	0xbe88ce50	-0.26719904
166	0xbe8a4553	-0.27006015
167	0xbe94b685	-0.290455
168	0x3ddf04e3	0.10889604
169	0xbd1fe48d	-0.039036322
170	0xbe9292af	-0.28627536
171	0xbe640dd4	-0.222709
172	0xbbbdc9b3	-0.0057918667
173	0xbcf15c28	-0.029462889
174	0x3f00a4a1	0.50251204
175	0xbd86a120	-0.06573701
176	0x3dc1a5cc	0.09455451
177	0x3ec2daba	0.380575
178	0x3a4fa8d2	0.00079215795
179	0x3e45c969	0.19315113
180	0x3e858ff5	0.26086393
181	0x3b8c13dd	0.004274829
182	0x3e3f631a	0.18690148
183	0x3e814118	0.25244975
184	0x3f2b8e94	0.6701443
185	0x3dad49d4	0.08461347
186	0x3dea5678	0.11442274
187	0x3ddb5a24	0.10710552
188	0x3db2b596	0.08726041
189	0x3d9dab72	0.07698716
190	0x3e3de2a3	0.18543486
191	0xbd353be4	-0.04424657
192	0x3e95589c	0.29169166
193	0xbdb119e4	-0.08647516
194	0x3e60cc7d	0.21953006
195	0x3d5be0a8	0.053681046
196	0xbe9925ed	-0.29911748
197	0x3d3bd214	0.045854643
198	0xbedcba66	-0.4311096
199	0x3d099394	0.033588007
200	0xbea83eb3	-0.32860336
201	0xbd9a1790	-0.075240254
202	0x3f065d94	0.5248654
203	0x3db78d7c	0.08962533
204	0x3f03cf8d	0.5148857
205	0xbea3ac68	-0.31967473
206	0x3f02719e	0.50954616
207	0x3f6386ca	0.88877547
208	0x3f13bcfe	0.57710254
209	0xbc79c25d	-0.015244094
210	0x3edbd4d6	0.42935818
211	0x3eff2bc0	0.49838066
212	0xbb0ff12f	-0.0021963825
213	0xbfc63dc8	-1.5487604
214	0xbf3c5e8a	-0.73581755
215	0xbe38b11f	-0.18036316
216	0x3ea19794	0.31560957
217	0x3f293c47	0.661076
218	0xbf7879df	-0.9706096
219	0xbe26f826	-0.16305599
220	0x3eb965cb	0.36210474
221	0xbd25bc2d	-0.04046266
222	0xbf0d93cc	-0.55303645
223	0xbe962683	-0.29326257
224	0x3e83ff2b	0.25780615
225	0x3fa28c68	1.2699099
226	0xbf50c132	-0.8154479
227	0xbde92658	-0.113842666
228	0xbe8cc8b3	-0.2749687
229	0x3fa3b8f4	1.2790818
230	0xbf5fc052	-0.8740283
231	0x3d78ea7b	0.060770493
232	0x3ec71653	0.3888422
233	0x3ed20a3b	0.4102343
234	0x3fa506ae	1.2892663
235	0xbe8b9166	-0.27259368
236	0xbf1ce3dd	-0.6128519
237	0x3d97ac23	0.07405879
238	0xbf6e6da8	-0.9313607
239	0xbedc4c7f	-0.43027112
240	0xbe0e377a	-0.1388835
241	0xbe14ee31	-0.14543988
242	0xbd44e68b	-0.048071425
243	0xbded6b02	-0.11592676
244	0xbda7f16d	-0.08200345
245	0xbd5766cf	-0.05258828
246	0xbd89d2bb	-0.06729647
247	0xbd1e4a89	-0.0386453
248	0x3e85bc1d	0.26120082
249	0x3cf19b78	0.029493079
250	0xbe09071f	-0.13381623
251	0x3d9ddf46	0.07708602
252	0x3e015953	0.1263173
253	0x3e5e7474	0.21724111
254	0x3f2c5009	0.67309624
255	0xbeb5fd34	-0.3554474

features.layers.2.logic.1.layer.0.mlp.0.bias f4 [8]
0	0xbe01e0f4	-0.12683469
1	0xbd96e05c	-0.07367012
2	0x3e9a0842	0.30084425
3	0x3e44c259	0.19214763
4	0x3e41b50a	0.18916717
5	0x3db2d2dd	0.08731625
6	0xbdfe2fb7	-0.12411445
7	0xbdb37d10	-0.08764088

features.layers.2.logic.2.layer.0.mlp.0.weight f4 [8, 88]
0	0x3d317fcb	0.043334763
1	0xbe007ee5	-0.12548406
2	0x3c77b9f1	0.0151200155
3	0xbe7a60d6	-0.24451002
4	0xbde6ddb9	-0.11272759
5	0xbe15a65e	-0.14614245
6	0xbe800d19	-0.25009993
7	0xbd19804c	-0.03747587
8	0xbcc4873d	-0.023990268
9	0xbe7e415a	-0.24829617
10	0xbd06a109	-0.03286842
11	0xbc132389	-0.00898064
12	0xbebc441b	-0.3677071
13	0x3e2ef194	0.17084342
14	0xbe0ed3b3	-0.13947944
15	0xbe847553	-0.2587076
16	0xbf0b011c	-0.5429857
17	0x3ecf06f8	0.40435004
18	0xbe9ae762	-0.30254656
19	0x3f3d6bf4	0.7399285
20	0x3e4c8280	0.19971657
21	0xbef9aac9	-0.4876311
22	0x3e60e891	0.21963717
23	0x3e010a03	0.12601475
24	0xbd89d442	-0.06729938
25	0xbd7ef145	-0.06224181
26	0x3e6e4b85	0.23270996
27	0xbf088ec4	-0.53342843
28	0xbef637f9	-0.4808958
29	0xbe9acd09	-0.30234554
30	0xbf156e59	-0.583715
31	0xbe939cf8	-0.28830695
32	0xbce6a512	-0.028154884
33	0xbd8a6959	-0.06758375
34	0xbf46bef9	-0.7763515
35	0xbe4f1485	-0.20222671
36	0xbcb7891d	-0.022404248
37	0xbecc31e1	-0.39881805
38	0x3eb5a31d	0.35476008
39	0xbe3513f1	-0.17683388
40	0x3eb33948	0.3500464
41	0x3d1ff613	0.039053034
42	0x3e3ac773	0.18240146
43	0xbf0c7959	-0.5487266
44	0x3ec36199	0.381604
45	0xbe02e434	-0.12782365
46	0xbe9373dc	-0.2879933
47	0xbef4309b	-0.47693333
48	0xbc550c40	-0.013003409
49	0x3cebe0f4	0.02879379
50	0x3eadf74f	0.33977744
51	0xbef639eb	-0.48091063
52	0xbf3a7163	-0.72829264
53	0xbf786f6e	-0.9704503
54	0xbf41e80e	-0.7574471
55	0xbf05e616	-0.5230421
56	0xbf5a459a	-0.85262454
57	0x3f0b19fc	0.54336524
58	0xbf3e60d2	-0.74366486
59	0xbf3d0354	-0.73833203
60	0xbe05bcc6	-0.13060293
61	0xbcc04a06	-0.023472797
62	0x3e8915e5	0.26774517
63	0xbf1311bf	-0.57448953
64	0x3c966372	0.018357966
65	0xbf14bf90	-0.581048
66	0x3e7e5b99	0.24839629
67	0x3decb158	0.11557263
68	0xbf28cba2	-0.6593572
69	0x3ed4d4a8	0.41568494
70	0xbebeb0f1	-0.3724437
71	0x3f40193b	0.750385
72	0x3e31b716	0.17354998
73	0x3e315b4d	0.17319985
74	0x3dce750f	0.10080921
75	0xbe1a3a47	-0.15061294
76	0xbd8c039e	-0.068366274
77	0xbe2e7e3f	-0.17040347
78	0x3e9c5a6c	0.30537736
79	0xbe990af5	-0.29891172
80	0xbe4652ce	-0.19367525
81	0xbeee1eec	-0.46507967
82	0x3e1b2537	0.15150915
83	0xbee33078	-0.44372916
84	0x3e5209b6	0.20511517
85	0xbefcafe5	-0.49352947
86	0xbf0ef59f	-0.5584354
87	0xbead31e0	-0.33827114
88	0xbe3e85ab	-0.18605678
89	0xbf196660	-0.59921837
90	0xbe6bc240	-0.23023319
91	0xbe3d1f06	-0.18468866
92	0xbe75128c	-0.23932856
93	0xbe9ed655	-0.31022897
94	0xbe26362b	-0.16231601
95	0xbef53094	-0.47888625
96	0xbeb8c753	-0.36089572
97	0xbe4bfe70	-0.19921279
98	0xbf09b8c5	-0.5379756
99	0xbf4a8368	-0.7910676
100	0xbe4403b4	-0.19142038
101	0xbed5b1bc	-0.41737163
102	0xbdd72915	-0.10505883
103	0xbd643dd4	-0.055723026
104	0xbf87d9f5	-1.061339
105	0x3d6170da	0.055039264
106	0xbed08cdf	-0.40732476
107	0xbdcd5b60	-0.10027194
108	0xbf334a35	-0.70035106
109	0xbe82f732	-0.2557922
110	0xbe03e25a	-0.12879315
111	0xbe76dfec	-0.24108857
112	0xbe022980	-0.12711143
113	0xbe45a236	-0.1930016
114	0xbea28e6b	-0.3174928
115	0xbe8ddd9e	-0.27708143
116	0xbf39b088	-0.7253499
117	0xbf14a51f	-0.58064455
118	0xbe8c9e3b	-0.2746447
119	0xbe7d9832	-0.24765089
120	0xbf5f8d20	-0.87324715
121	0xbe71b9f4	-0.23606092
122	0xbf840da6	-1.0316665
123	0xbe8b39ac	-0.27192438
124	0xbf406a59	-0.75162274
125	0xbde95122	-0.11392428
126	0xbef19d77	-0.4719045
127	0xbdb69917	-0.08915918
128	0xbec05f72	-0.3757282
129	0xbec48269	-0.38380745
130	0xbece1868	-0.40252995
131	0x3e45091c	0.19241756
132	0xbecc93bf	-0.3995647
133	0xbf557a9a	-0.833902
134	0xbed9e057	-0.4255397
135	0xbf0ea420	-0.55719185
136	0xbf19bd89	-0.6005483
137	0xbeeb6b4e	-0.45980304
138	0xbe5540f4	-0.20825559
139	0xbf06a6fc	-0.5259855
140	0xbf0b9edf	-0.54539293
141	0x3d3864aa	0.045017876
142	0xbebe3bd6	-0.37155026
143	0xbef46356	-0.47732037
144	0x3dcb390b	0.099229895
145	0xbf1eaa89	-0.61978966
146	0xbd1f5508	-0.03889945
147	0x3e688724	0.22707802
148	0xbcba4fcb	-0.022743126
149	0xbda6b501	-0.081399925
150	0xbe75853b	-0.23976605
151	0xbe2a4ecd	-0.16631623
152	0xbf269bf9	-0.65081745
153	0xbe05a01c	-0.13049358
154	0x3d5ee7c1	0.054420236
155	0xbd92378c	-0.07139501
156	0xbf85b0d6	-1.0444591
157	0xbdf05a01	-0.11735917
158	0xbee119f6	-0.4396512
159	0xbe0dc42f	-0.1384437
160	0xbf26549f	-0.6497287
161	0xbcf732e5	-0.030175636
162	0xbe4b41f1	-0.19849373
163	0xbeb1ce35	-0.34727636
164	0xbf3c513c	-0.73561454
165	0xbea47afa	-0.32125074
166	0xbde3c739	-0.11121983
167	0xbecfca02	-0.40583807
168	0xbf2a243c	-0.6646154
169	0xbead4cce	-0.3384766
170	0xbebd4079	-0.3696325
171	0xbe621565	-0.22078474
172	0xbeb3d6da	-0.35124856
173	0xbee9210b	-0.45533022
174	0xbe9b383b	-0.30316338
175	0xbeca9b96	-0.39571828
176	0xbf55e36a	-0.8355013
177	0xbea0fe5e	-0.31444067
178	0xbeceb2fa	-0.40370923
179	0xbeddea03	-0.433426
180	0xbf3125cd	-0.69198304
181	0xbf1b9edf	-0.60789293
182	0xbef08716	-0.46978062
183	0xbe391e08	-0.18077862
184	0xbea162db	-0.31520733
185	0xbeab2a8f	-0.33430907
186	0xbe62257f	-0.22084616
187	0xbeb9ca21	-0.36287025
188	0xbea130cd	-0.31482545
189	0xbe68d2a7	-0.22736607
190	0xbe38527e	-0.18000218
191	0xbe8d0614	-0.275437
192	0xbda6992b	-0.08134683
193	0xbe399c71	-0.18126084
194	0x3ed209af	0.41023013
195	0xbe2de769	-0.16982807
196	0xbd6cdfdf	-0.057830688
197	0x3eba5e88	0.36400247
198	0xbf6305be	-0.88680637
199	0xbeab2772	-0.33428532
200	0xbe3ec58a	-0.18630043
201	0xbd792f6f	-0.06083625
202	0x3d8e02f3	0.06934156
203	0x3e89e59e	0.26932997
204	0x3d7d2762	0.061805137
205	0x3cc02993	0.023457324
206	0xbf0953db	-0.5364358
207	0xbf9b1d83	-1.2118381
208	0x3ec32019	0.38110426
209	0xbfa40da3	-1.2816662
210	0x3e6eb6b1	0.23311879
211	0xbf0ddbf7	-0.55413765
212	0x3e6118b1	0.21982075
213	0xbf816ce1	-1.0111352
214	0x3e2d9c10	0.16954064
215	0xbf88e8f2	-1.0696089
216	0xbe6cf551	-0.23140456
217	0xbf39c5ec	-0.7256763
218	0xbf7c410e	-0.98536766
219	0xbdee030b	-0.11621674
220	0x3d3a708e	0.045517497
221	0xbeaecc3d	-0.34140196
222	0xbf0a581e	-0.54040706
223	0xbefa6bcb	-0.48910365
224	0xbdec605b	-0.11541816
225	0x3df06016	0.11737077
226	0x3f20529e	0.62626064
227	0xbf0d129d	-0.55106527
228	0xbf85017f	-1.0391082
229	0xbec496e0	-0.38396358
230	0xbf1b1275	-0.6057504
231	0xbf2a8cbd	-0.66621
232	0xbf082e03	-0.5319521
233	0x3e5421dc	0.20716041
234	0xbf2f0a25	-0.68374854
235	0xbf0e2ee1	-0.5554028
236	0xbe232811	-0.15933253
237	0xbe52588b	-0.20541589
238	0x3d39d073	0.04536481
239	0x3ea45d4d	0.32102433
240	0x3b0d21f4	0.002153513
241	0x3ed74321	0.42043403
242	0xbf672c6a	-0.90302145
243	0xbe85631b	-0.26052174
244	0xbd7c9254	-0.061662987
245	0xbe30dbe0	-0.17271376
246	0x3ec3624f	0.3816094
247	0xbc564fff	-0.013080596
248	0xbecade38	-0.39622664
249	0xbe9afb59	-0.30269888
250	0xbf1b1cc9	-0.605908
251	0xbf4424a1	-0.7661839
252	0x3eeb1b19	0.4591911
253	0xbf7794c7	-0.9671139
254	0xbe4ba611	-0.19887568
255	0xbeb92434	-0.36160433

features.layers.2.logic.2.layer.0.mlp.0.bias f4 [8]
0	0xbe927dc5	-0.2861158
1	0xbf279638	-0.6546359
2	0xbad08be0	-0.0015910827
3	0x3e57039d	0.20997472
4	0x3ec52652	0.385058
5	0x3e0884c2	0.13331893
6	0xbdd329d0	-0.103107095
7	0xbe214180	-0.15747643
