models/path.pth (torch_old, 171478 bytes, 107 tensors)

features.layers.0.logic.0.layer.0.mlp.0.weight f4 [8, 4]
000000 d4 6e a8 bf bc 3d 6c be 98 94 e2 bf a2 b0 81 be
       -1.3158822 -0.23070425 -1.7701597 -0.25330073
000010 91 72 19 c0 a0 2b 32 3d c9 bb 27 c0 c0 b6 1e bd
       -2.3976176 0.043498635 -2.6208365 -0.038748503
000020 79 1e c7 bf 68 0a d8 bd a4 26 b0 bf b6 ff e2 3e
       -1.5556175 -0.1054886 -1.3761792 0.44335717
000030 07 02 d5 bf e0 ee a3 3c cb 39 c8 bf 58 47 b2 bd
       -1.6641244 0.020011365 -1.5642637 -0.08705014
000040 a3 98 c0 bf 00 26 da bd 31 40 d1 bf b6 99 b0 be
       -1.5046581 -0.10651779 -1.6347715 -0.34492272
000050 e1 b1 29 c0 dc da e9 be 89 8f 0e c0 cc 56 19 3e
       -2.6514819 -0.4567479 -2.2275107 0.14974517
000060 f4 04 c1 bf 60 ba 11 3d 57 91 c0 bf f2 0f f1 3e
       -1.5079637 0.03557813 -1.5044354 0.47082478
000070 f9 8c d8 bf 62 24 89 3e 24 21 67 bf 68 69 1f 3e
       -1.6918021 0.2678557 -0.90284944 0.15567553

features.layers.0.logic.0.layer.0.mlp.0.bias f4 [8]
000000 11 98 b4 bf fc d4 15 c0 2e 6d 63 bf ce 03 c2 bf
       -1.4108907 -2.3411245 -0.8883847 -1.5157411
000010 d0 22 a9 bf da f4 f7 bf c0 40 df bf 54 55 db bf
       -1.3213749 -1.9371598 -1.7441635 -1.7135415

features.layers.0.logic.1.layer.0.mlp.0.weight f4 [8, 6]
000000 21 84 9f bf 5d c1 8f 3e 20 de ba bf e1 93 52 3c
       -1.2462198 0.28077212 -1.4599037 0.01285264
000010 f6 66 7f bf 0c ff 05 3f fd d6 54 3e 09 d2 f1 be
       -0.9976648 0.52342296 0.20785137 -0.47230557
000020 b6 b8 aa bf fb 35 b5 be 4c cb 26 bf bb d8 bd be
       -1.3337619 -0.35392746 -0.65153956 -0.37079415
000030 c6 f3 95 3e 70 75 f5 be 99 c9 d3 be 3b 73 05 bf
       0.29287547 -0.4794116 -0.41364744 -0.5212895
000040 0a 8d 86 bf ef a3 9e be fb ed 86 bf 93 26 c7 3e
       -1.0511792 -0.30984446 -1.0541376 0.38896617
000050 49 00 0c bf f0 b5 28 3e 5c 24 9f bf de 09 dd 3d
       -0.54687935 0.16475654 -1.2432971 0.10792898
000060 9b 22 a8 3e 4f e9 12 bf 8c 4a 13 bf 3b f2 02 bf
       0.32838902 -0.5738725 -0.57535625 -0.51150864
000070 ee db 49 bf 37 c3 49 be ae 3c 29 3f 94 8a 21 bf
       -0.7885121 -0.19703375 0.66108215 -0.6310208
000080 aa a9 ad be 2e 29 b6 be 77 e1 4f bf ba f2 fd be
       -0.33918506 -0.35578293 -0.8120341 -0.49599248
000090 5a a6 ba 3d fb 5e 02 bf 3d 0d 2b bf ff 26 12 bf
       0.0911376 -0.5092618 -0.66817075 -0.57090753
0000a0 30 0c 55 bf 8a d7 9d 3d 02 cc 43 bf e0 8a af 3e
       -0.8322172 0.077071264 -0.76483166 0.3428564
0000b0 1e 3f d6 bf 19 e8 85 3e 64 e3 9e bf 26 1e c7 3c
       -1.6738012 0.2615364 -1.2413144 0.024306368

features.layers.0.logic.1.layer.0.mlp.0.bias f4 [8]
000000 2f 93 42 bf 27 f5 49 bf 5b 59 2f bf 04 8d 9a bf
       -0.76005834 -0.788897 -0.6849572 -1.2074285
000010 ef 23 20 bf 1b fc c6 be 86 ca 30 bf 60 f4 90 bf
       -0.6255483 -0.38864216 -0.69059026 -1.1324577

features.layers.0.logic.2.layer.0.mlp.0.weight f4 [8, 8]
000000 f9 38 28 3f fc 48 76 be 95 3c ad be ab 36 1e be
       0.65711933 -0.24051279 -0.33835283 -0.15450542
000010 a5 d8 75 bf 6f 00 8f 3e a7 04 60 be 57 3f c5 be
       -0.960337 0.27930018 -0.21876775 -0.38524887
000020 2f ca 71 bf db 1d d7 bf c1 a4 0c 3f c9 4a 6f bc
       -0.9444913 -1.6805986 0.54938895 -0.0146052325
000030 ad 9a e8 3f 63 73 33 3e 44 ce 92 3e 7c 5c 0a 3f
       1.8172203 0.17524485 0.28672993 0.5404737
000040 87 08 8f bf c2 e6 20 be 29 01 31 3e ae 18 b5 3e
       -1.1174477 -0.15713027 0.17285599 0.35370392
000050 35 5b 94 3f c8 0a 3a bf db 58 67 be d5 43 c9 3e
       1.1590334 -0.726727 -0.2259249 0.39309564
000060 0f fd 92 3f fa ea b3 be d2 43 2e bf f8 8b 21 bf
       1.1483477 -0.3514021 -0.68072236 -0.631042
000070 15 9d c4 3f b4 97 90 3f 67 29 fc be 01 3f 56 be
       1.5360438 1.1296296 -0.49250337 -0.20922472
000080 eb 12 0f 3f ff 1a 29 3e bf 71 81 be 83 63 06 bf
       0.5588824 0.16514204 -0.25282094 -0.5249559
000090 07 17 ef 3f 63 f3 5d bf 94 be fa bd 71 f2 fd be
       1.8678902 -0.86699504 -0.12243381 -0.4959903
0000a0 9c 83 e2 bf 09 d3 82 3e 28 0b 00 3f ff 22 f2 ba
       -1.7696414 0.25551632 0.50017023 -0.0018473564
0000b0 9a da af bf ac b4 16 bf d1 fb 6b 3e c3 9d 47 3c
       -1.3738587 -0.58869433 0.23045279 0.012183609
0000c0 cc 55 ae 3f 64 8b 0c bf 66 9d 89 be cf 51 f7 be
       1.3619933 -0.54900193 -0.26877898 -0.48304603
0000d0 96 c8 a1 3f 9f 88 98 3f d2 4f 05 be 81 bf 9c bd
       1.2639339 1.1916693 -0.1301873 -0.07653714
0000e0 ab 4f 45 3e b9 db bf bf 9b ab fa 3e c3 1b a7 3d
       0.19268672 -1.4988929 0.4895905 0.08159592
0000f0 30 b7 e6 3f cc 28 5b 3d 2c 75 2f 3f 3a f0 89 3e
       1.8024654 0.053505704 0.68538165 0.2694109

features.layers.0.logic.2.layer.0.mlp.0.bias f4 [8]
000000 94 9d 6b bd 3f 11 26 bf 78 76 d7 bf 2e 5e d3 be
       -0.057523325 -0.64870065 -1.6833029 -0.4128279
000010 11 cc 5e bf fe db d3 be 1d 78 a0 be 51 8a 49 bf
       -0.8703013 -0.41378778 -0.3134164 -0.7872668

features.layers.0.logic.3.layer.0.mlp.0.weight f4 [8, 12]
000000 a1 fe 97 3e bf 9e 40 3e 38 5c 45 3f b4 ba 55 3f
       0.29686454 0.18810557 0.7709384 0.8348801
000010 b9 61 38 3e 84 43 d3 3d f9 36 da 3e e5 c4 1d 3f
       0.18006028 0.10315612 0.42620066 0.6162856
000020 95 c3 09 bf df d3 cc be 33 e5 b2 be bb b1 51 bf
       -0.5381406 -0.40005395 -0.3494049 -0.8191182
000030 d5 e9 0e be aa f0 2d bd 4d 19 50 bf 01 08 55 bf
       -0.13956387 -0.042465843 -0.81288606 -0.8321534
000040 8d 45 9b bd f0 a4 47 3d c2 0b 40 bf 83 9d 81 bf
       -0.07581625 0.04874128 -0.7501794 -1.0126194
000050 5d 2f 1e 3e d1 52 84 3e df 30 e1 3e 55 d8 9b 3e
       0.15447755 0.25844434 0.43982598 0.30438486
000060 0c 0f 51 be 53 b3 07 be 9d ee 13 bf be fd 1b bf
       -0.20415896 -0.13252 -0.5778597 -0.60934055
000070 f3 dc 2c be cb 4d a8 be 96 7d ac be 95 02 29 bf
       -0.1688116 -0.3287185 -0.33689564 -0.66019565
000080 ff 67 59 3e 89 e1 3f be fa 3f 83 3e 02 13 9f 3e
       0.21231078 -0.18738379 0.25634748 0.3106919
000090 ef 45 1b bf 31 dd 50 bf b6 9a 0a bf fc 1f 07 bf
       -0.60653585 -0.8158751 -0.5414232 -0.5278318
0000a0 98 52 15 bf 77 db 3a bf 94 f4 e9 be 69 18 9e be
       -0.58329153 -0.72991127 -0.4569441 -0.30877998
0000b0 3a 38 10 bf ba 06 ee be 00 de 4f bd 0c b2 06 bf
       -0.56335795 -0.46489507 -0.050748825 -0.5261543
0000c0 ba e1 8f bd 5a 6a b5 be 40 8e 6d 3d 11 ae b2 3e
       -0.07025476 -0.35432702 0.05799699 0.34898427
0000d0 60 69 d2 bd 30 3f fe 3d 93 16 3b 3a a3 cf 1b be
       -0.10274005 0.12414396 0.00071368477 -0.15215926
0000e0 9b d5 80 bf 7c c3 90 bf 5c f4 94 bf 71 b5 6c bf
       -1.0065187 -1.1309657 -1.1637073 -0.9246436
0000f0 2c 27 f6 be ac 62 bd be f3 3e 88 be 24 e4 2c bf
       -0.4807676 -0.36989343 -0.26610526 -0.67535615
000100 ad 0b 28 bf 57 db 0f bf eb cc 0b bf 96 b8 02 bf
       -0.65642816 -0.5619406 -0.54609555 -0.51062906
000110 3b 3b c7 3e 59 48 17 3e 04 75 9c 3c db 09 07 bd
       0.38912377 0.14773692 0.019098766 -0.032968383
000120 da f0 0c bf 8d ae 9a be 89 f1 8c be 20 d4 8a be
       -0.5505501 -0.30211297 -0.27528027 -0.27114964
000130 20 63 0b bf d4 7c 22 bf 9c ea f5 be 6e e8 1d bf
       -0.5444813 -0.6347172 -0.48030555 -0.61682785
000140 67 88 17 bf ed 28 9b be b3 c2 14 bf 23 00 ce be
       -0.5919251 -0.3030466 -0.5810959 -0.4023448
000150 68 a2 95 bd cb cc b5 be 64 2c 97 bf 76 1b 80 bf
       -0.07306367 -0.35507807 -1.1810422 -1.000838
000160 8f 7f 94 bd 42 a0 8c be 16 81 73 bf 4b 30 5e bf
       -0.07250892 -0.27466017 -0.95118845 -0.8679244
000170 b1 be b0 3c 7b e6 96 bd 84 ae c3 3d aa c9 3b be
       0.021575304 -0.073681794 0.095547706 -0.18338647

features.layers.0.logic.3.layer.0.mlp.0.bias f4 [8]
000000 b1 82 8d be e8 07 9a be 57 bb 74 bf 52 9f ab 3f
       -0.27638772 -0.30084157 -0.9559836 1.3407996
000010 f4 7a 47 bf 58 26 83 bf 05 b3 ae 3f 77 cf 40 bf
       -0.77921987 -1.0246077 1.3648382 -0.75316566

features.layers.1.logic.0.layer.0.mlp.0.weight f4 [8, 28]
000000 56 e5 83 bf 80 f7 09 bf ed 5f c2 bf 49 9b 88 bf
       -1.0304363 -0.5389328 -1.5185524 -1.0672389
000010 a6 d8 9e bf b6 80 54 bf 0c 18 99 bf 3d c5 95 bf
       -1.2409866 -0.830089 -1.1960464 -1.1700817
000020 59 ca f1 bf 5a d6 97 bd 92 b6 ed bf fc ef 33 be
       -1.8889877 -0.07413931 -1.8571341 -0.17572016
000030 d9 c5 cc bf 3d f0 8f bf 75 63 dc bf b7 17 b0 bf
       -1.5997878 -1.124519 -1.7217852 -1.3757237
000040 69 2e ce bf 2a 8c c9 bf 5a 43 c7 bf ea 5a a2 bf
       -1.6107913 -1.57459 -1.5567429 -1.2683995
000050 65 7b d2 bf 59 b9 d6 bf 91 5f c2 bf a4 75 d2 bf
       -1.6443907 -1.6775314 -1.5185415 -1.6442151
000060 78 fb ce bf 7c e8 bc bf 23 21 b2 bf 59 1c 98 bf
       -1.6170492 -1.4758449 -1.3916363 -1.1883651
000070 18 8d 91 bf c1 10 34 bf f3 05 c1 bf b2 33 88 bf
       -1.1371183 -0.70338064 -1.507994 -1.0640776
000080 c3 be ac bf 07 6c 27 bf 38 75 b4 bf 63 dd bc bf
       -1.3495716 -0.6539921 -1.4098272 -1.4755062
000090 6a 2a e1 bf 4f 98 09 be 63 41 ea bf a3 e2 28 3e
       -1.7591069 -0.13437007 -1.8301204 0.16492705
0000a0 43 fb c7 bf 5a 1a 8b bf 7f 55 cd bf 08 4b d6 bf
       -1.5623554 -1.0867417 -1.6041716 -1.6741648
0000b0 9c 0e e8 bf a0 5f cb bf 37 54 bd bf c2 6f 97 bf
       -1.8129458 -1.5888557 -1.4791325 -1.1830981
0000c0 0b 87 c7 bf 4d d5 cd bf c9 e1 d6 bf 57 a6 bf bf
       -1.5588087 -1.6080719 -1.6787654 -1.4972638
0000d0 02 db bd bf f9 4f db bf 33 78 c2 bf fc b6 a1 bf
       -1.4832461 -1.7133781 -1.5192932 -1.2633967
0000e0 3d 8d 98 bf 72 77 79 bf 4f 51 bb bf ff df 87 bf
       -1.1918103 -0.97447884 -1.4634188 -1.0615233
0000f0 ef 0d b7 bf ae 0f 45 bf a6 88 a8 bf 43 9f aa bf
       -1.4301127 -0.7697705 -1.3166702 -1.3329853
000100 6a 2d e7 bf 92 e5 bf 3d 1c eb d3 bf ce 8f b9 3d
       -1.8060734 0.09369959 -1.6556125 0.09060632
000110 1e c5 d8 bf 24 a0 a4 bf 72 fc da bf 77 7a cd bf
       -1.6935155 -1.2861371 -1.710829 -1.6052998
000120 69 79 eb bf 09 64 bf bf f7 1a bf bf b0 ba ce bf
       -1.8396426 -1.4952403 -1.4930104 -1.6150723
000130 ce 02 e9 bf 5d 9f db bf cb 75 e7 bf 24 98 cd bf
       -1.8203981 -1.7158009 -1.8082823 -1.6062055
000140 9f f4 d8 bf 9a 10 e5 bf b3 63 df bf 17 36 ae bf
       -1.6949652 -1.7895691 -1.7452301 -1.3610257
000150 46 f3 ac bf 05 95 0f bf f0 e7 a6 bf 68 bc 9f bf
       -1.3511741 -0.5608676 -1.3039532 -1.2479372
000160 14 56 ae bf a9 81 5a bf 5f 17 ad bf dd 18 b9 bf
       -1.3620019 -0.85354096 -1.3522757 -1.4460713
000170 40 98 d0 bf 59 19 0a 3e b2 a1 e6 bf e9 d0 1b 3e
       -1.6296463 0.13486232 -1.8018095 0.15216412
000180 02 97 e3 bf 68 ff a8 bf 5f 7e de bf 5e a4 b3 bf
       -1.7780459 -1.3202944 -1.7382315 -1.4034536
000190 d3 ba c4 bf c6 bc ad bf ca 85 c6 bf d8 3c c5 bf
       -1.5369514 -1.3573234 -1.5509579 -1.5409193
0001a0 01 3d d6 bf aa 2a cf bf aa 21 f4 bf 52 b1 ce bf
       -1.6737367 -1.6184895 -1.9072773 -1.6147864
0001b0 79 52 ca bf bf d9 cb bf d1 9d b2 bf f7 c4 9f bf
       -1.5806419 -1.5925826 -1.3954412 -1.2481984
0001c0 0f 95 9b bf a1 ab 32 bf b4 2e b8 bf e5 cd 9e bf
       -1.2154864 -0.69793135 -1.4389253 -1.2406584
0001d0 95 24 af bf 16 1c 2e bf 22 b2 9a bf bc c8 b2 bf
       -1.3683039 -0.68011606 -1.2085612 -1.3967509
0001e0 bf dc dd bf e6 da ba 3d 0a 98 f7 bf a8 5e 21 be
       -1.7332991 0.09123783 -1.9343274 -0.15758765
0001f0 10 85 d8 bf ed 41 ab bf bd 22 c3 bf 19 07 d7 bf
       -1.6915607 -1.3379494 -1.5244976 -1.6799041
000200 5f 57 c5 bf 8e 3e e1 bf 91 f3 cf bf 9f b9 c5 bf
       -1.5417289 -1.7597215 -1.6246206 -1.5447272
000210 8b 0d e8 bf de 0c c6 bf d5 6d dc bf 7b bc c9 bf
       -1.8129133 -1.5472677 -1.7221018 -1.5760645
000220 55 90 cb bf 11 ab c8 bf 41 85 ca bf ca c3 a2 bf
       -1.5903422 -1.5677205 -1.5821916 -1.2716
000230 ce 40 8b bf b8 48 1e bf 8e 36 98 bf e3 c0 7f bf
       -1.0879152 -0.6182971 -1.1891649 -0.99903697
000240 3d b3 8f bf 64 2d 0a bf 0a 2f 92 bf 07 ec 99 bf
       -1.1226574 -0.5397551 -1.1420605 -1.2025155
000250 b8 7b d2 bf c2 e4 bc 3d 2d b7 e2 bf 10 c6 38 bc
       -1.6444006 0.092233196 -1.7712151 -0.0112776905
000260 40 44 c8 bf 55 dd 8b bf c4 e6 be bf 7d c2 c9 bf
       -1.5645828 -1.092692 -1.4914174 -1.5762478
000270 f4 1d c2 bf 27 5a b7 bf 4f cd b7 bf 3b f9 af bf
       -1.5165391 -1.4324387 -1.435953 -1.3747934
000280 a5 c2 d9 bf aa f3 b5 bf 81 cf e6 bf a4 59 c2 bf
       -1.7012526 -1.4214985 -1.8032075 -1.5183606
000290 70 0d c3 bf 00 f8 d8 bf 73 10 c3 bf cc 0f a6 bf
       -1.5238476 -1.6950684 -1.5239395 -1.2973571
0002a0 02 d0 8d bf ea 1c 4d bf c9 eb ac bf 1e 0c 82 bf
       -1.1079104 -0.80122244 -1.3509456 -1.0159948
0002b0 47 d7 ab bf 24 61 54 bf 1c e6 b5 bf ed ed c3 bf
       -1.3425072 -0.82960725 -1.4210849 -1.5306984
0002c0 6b cb db bf 00 aa e8 ba aa 87 da bf 7d d6 20 3e
       -1.7171453 -0.0017750859 -1.7072651 0.15706821
0002d0 29 0b c3 bf c6 f6 8f bf 26 29 e5 bf e0 de bb bf
       -1.5237781 -1.1247184 -1.7903183 -1.4677391
0002e0 fd 14 dd bf f9 bc e3 bf 98 2e d8 bf 56 df a6 bf
       -1.727203 -1.7792045 -1.6889219 -1.3036907
0002f0 30 fb c7 bf 43 9f c0 bf ad 44 ce bf 55 4d dd bf
       -1.5623531 -1.5048603 -1.6114708 -1.7289225
000300 d1 9b bf bf 0f 80 c4 bf a8 e6 c0 bf 5a 92 8d bf
       -1.4969426 -1.535158 -1.5070391 -1.1060288
000310 b9 fd b4 bf ce 02 34 bf 0d c4 bd bf 46 f5 a6 bf
       -1.413993 -0.7031678 -1.4825455 -1.3043602
000320 c7 91 b8 bf d5 cb 67 bf fb 95 b0 bf 47 ba b5 bf
       -1.4419488 -0.905454 -1.379577 -1.4197472
000330 44 4a e8 bf e0 65 46 3d bd 95 00 c0 50 f6 a6 bd
       -1.8147664 0.048437 -2.0091393 -0.08152449
000340 3a 64 be bf 15 b5 93 bf f6 ae ce bf b5 80 da bf
       -1.4874337 -1.1539637 -1.6147144 -1.7070528
000350 6a 20 d9 bf 25 d1 bf bf 72 0a c3 bf a0 27 a1 bf
       -1.6963017 -1.4985701 -1.5237563 -1.2590218
000360 a6 7f d0 bf 55 8b bd bf 67 d1 ee bf f4 92 f2 bf
       -1.6288955 -1.4808146 -1.8657655 -1.8951097
000370 9a 84 e0 bf 82 9f d7 bf f8 b1 c0 bf 5c ed a7 bf
       -1.7540467 -1.6845553 -1.5054312 -1.3119311

features.layers.1.logic.0.layer.0.mlp.0.bias f4 [8]
000000 19 c7 eb bf 68 d2 d4 bf 16 1a d2 bf 04 22 ef bf
       -1.8420135 -1.6626711 -1.6414211 -1.8682256
000010 58 c3 cb bf 73 f9 f5 bf 8d 39 f1 bf 45 a8 e4 bf
       -1.5918989 -1.9216751 -1.8845688 -1.7863852

features.layers.1.logic.1.layer.0.mlp.0.weight f4 [8, 38]
000000 25 96 76 be b4 9e 33 be 8a 45 04 be 68 25 49 be
       -0.24080713 -0.17541009 -0.12917152 -0.19643176
000010 7e 44 f9 bd 31 72 f3 bd 55 82 c0 bd bb 51 75 bd
       -0.12171267 -0.11887015 -0.09399859 -0.059892397
000020 54 c4 d8 3d 86 23 8d bc 32 b6 a1 be 06 5d b5 bd
       0.105843216 -0.017228853 -0.31584316 -0.088556334
000030 11 3c 8c 3d 39 40 be bd fa 53 d8 bd e7 ac d1 3d
       0.06847394 -0.09289593 -0.10562892 0.10238057
000040 d0 f3 4c be 7e 30 cb bc 30 66 60 be 00 ed 3d bd
       -0.20014882 -0.024803396 -0.21913981 -0.0463686
000050 4d 7b 9b be 87 9e 42 be 5f ab 36 be ec fa 92 3f
       -0.3036751 -0.19005786 -0.1783881 1.1482825
000060 3a 93 59 bf b5 16 6d 3e 09 de 58 bf ba 1b ec 3e
       -0.84990275 0.23153193 -0.847138 0.46114904
000070 04 d3 a4 3f 1d e3 b0 be 3c 67 a9 3f f4 75 3c bf
       1.2876897 -0.34548274 1.323463 -0.7361748
000080 da e6 86 be c9 6d 87 bf bf a2 41 3f 0c 12 ea bc
       -0.26348 -1.0580379 0.75638956 -0.028573059
000090 04 9d 56 bf b7 a4 44 3e 92 78 39 bd 49 a2 b6 3d
       -0.83833337 0.19203459 -0.045281 0.08917672
0000a0 e4 c8 8e 3b 93 e2 02 be 01 a6 0f be 48 6e 05 3e
       0.004357444 -0.12781744 -0.14028169 0.1303035
0000b0 62 ec be bd a9 9d 90 bc a6 3b ae be ea 0d e6 3e
       -0.0932243 -0.017653303 -0.34029883 0.4493249
0000c0 65 4d 2c 3d 9b cc ce be 21 c9 11 be 4d 70 85 3d
       0.042065997 -0.40390477 -0.14236881 0.0651556
0000d0 21 b0 66 be ca 0f a9 be d0 6b 28 be 36 15 99 3e
       -0.22528125 -0.3301986 -0.16447377 0.29898995
0000e0 53 89 39 bc ea 21 0f 3e ac 84 7a 3d 40 90 09 3e
       -0.011324245 0.13977781 0.061161682 0.13433933
0000f0 3b 09 38 be 4a a4 b7 bf a8 50 d1 3e 39 df 33 bf
       -0.17972271 -1.4347012 0.40881848 -0.70262486
000100 f0 53 20 3f 0c 29 cb be f1 90 e1 bf f0 50 c0 bd
       0.6262808 -0.39679754 -1.7622358 -0.093904376
000110 d4 34 ae bf 84 82 b1 3e d4 86 3a bd 17 55 85 3f
       -1.3609872 0.34669888 -0.04553874 1.0416592
000120 b0 93 a6 bf 20 b0 9a be 81 d1 33 3f 05 cc 2c bf
       -1.3013821 -0.30212498 0.7024155 -0.6749881
000130 0a f5 a5 3c 15 eb 1c 39 70 eb 7d 3b f7 8a 3f be
       0.020258445 0.00014964894 0.0038745068 -0.18705355
000140 5d 1a 47 bd a3 35 29 ba 84 73 3a be 26 94 1e be
       -0.048609126 -0.0006454831 -0.18208128 -0.15486202
000150 0c 65 2d 3e 2f 8a 66 ba e8 42 19 bd 00 12 80 3d
       0.16933078 -0.00087943947 -0.037417322 0.06253433
000160 83 0e d0 bc e9 ba 8f bd fe 05 06 3e 6b b8 16 be
       -0.025397545 -0.07018072 0.13088223 -0.14718787
000170 fc 55 2f be 27 e4 f4 bc 4b 04 5d be 09 16 5c bd
       -0.17122644 -0.029893948 -0.21583669 -0.05373195
000180 49 39 4e be 24 c4 9c bb e2 b1 e6 be 25 5a 74 3f
       -0.2013904 -0.004784124 -0.4505759 0.9545005
000190 c6 34 45 bf 8b ff 71 3e 68 12 7f bf 0b 7f d9 3e
       -0.7703365 0.23632638 -0.9963746 0.4247974
0001a0 da 26 9d 3f 43 e7 ef bd 99 14 87 3f 52 bd 2e bf
       1.2277482 -0.117140315 1.0553161 -0.6825763
0001b0 0d 60 e8 bd df 1b 88 bf 58 be 38 3f f3 f1 ab bd
       -0.11346445 -1.0633506 0.7216544 -0.083957575
0001c0 a2 bc 6f bf ed 58 4c 3e 79 3b 02 bd 81 57 2e be
       -0.93647206 0.19955797 -0.031795 -0.17025568
0001d0 0b b3 81 be 15 28 87 3a 03 73 8f bd 52 52 02 bd
       -0.2533191 0.0010311628 -0.070043586 -0.031816788
0001e0 eb 5e 11 3d 28 58 c1 3c 61 a7 5d 3e ab 1d ce bd
       0.03549091 0.023601606 0.21645881 -0.100642525
0001f0 d6 61 9a be 62 30 8e bb 47 da 1f be 12 79 d7 bd
       -0.30152768 -0.004339264 -0.1561061 -0.10521139
000200 f2 b3 a5 bd 3e e0 a6 bd 49 da 20 be b4 a6 bd bd
       -0.080909625 -0.081482396 -0.15708269 -0.09260312
000210 8e 40 9d 3d f8 b1 ff bd ed 3b 49 be a8 e2 90 be
       0.076783285 -0.12485117 -0.19651766 -0.28297925
000220 50 05 d8 be 10 e8 72 3f ef a1 58 bf 1f e9 c2 3d
       -0.42191553 0.9488535 -0.8462209 0.095171206
000230 29 19 79 bf 35 29 04 3f e0 e9 91 3f 2b 22 06 bd
       -0.97304016 0.51625377 1.1399498 -0.03274743
000240 21 37 88 3f d7 b3 6c bf 46 e7 6f bd db bc 8f bf
       1.0641824 -0.92461914 -0.05857017 -1.1229509
000250 b6 87 1b 3f f1 23 39 3e 79 db 89 bf fa b0 b4 3e
       0.60753953 0.18080117 -1.0770103 0.35291272
000260 cf d6 8c bd 87 5c 7a 3d 9f f5 42 be 91 da e9 bd
       -0.06876909 0.061123397 -0.1903901 -0.11418641
000270 ee 3d 44 be ae 79 6f 3d 65 62 cd bd b6 e9 19 be
       -0.1916425 0.058465652 -0.10028533 -0.1503056
000280 f0 17 59 be ca 55 eb 3e 53 be 9f 3e 55 8a a7 be
       -0.21200538 0.4596389 0.31199893 -0.32722726
000290 c7 72 bb be e1 85 50 3e 30 8a 7d be 99 88 86 be
       -0.36611006 0.20363571 -0.24759746 -0.2627609
0002a0 b8 04 3d be 21 ec 5a 3e 2d 64 8e be e3 f3 f3 3d
       -0.18458831 0.21379139 -0.27810803 0.11911752
0002b0 07 d6 7b bd 06 06 4a 3e 41 e7 05 3d a0 b5 a1 bf
       -0.06148341 0.1972886 0.032691244 -1.2633553
0002c0 ee 9a 0a 3f d5 ea 40 bf 4f c4 68 3f 97 2f 84 be
       0.54142654 -0.75358325 0.90924543 -0.25817558
0002d0 b1 62 ef bf 9d c5 2e be 78 21 a9 bf 37 b2 e9 3e
       -1.8701993 -0.17067571 -1.3213339 0.4564378
0002e0 64 b1 20 bc 27 3f 6d 3f 0f d9 9c bf 38 5a 8d be
       -0.009807918 0.9267449 -1.2253741 -0.27607894
0002f0 69 61 30 3f 9d 55 36 bf b0 14 56 3c 22 c6 a9 bd
       0.68898636 -0.71224385 0.013066456 -0.08289744
000300 5f 1a 45 bd d2 10 15 be aa ed 06 be c0 9f 33 3d
       -0.048120853 -0.14557198 -0.13176599 0.04385352
000310 40 aa b2 bd 83 51 3f bd 38 81 72 be 1c 55 84 3e
       -0.08723879 -0.046708595 -0.23682106 0.25846183
000320 c5 08 25 3e b9 fd 73 be ac ff 2f be 59 ed ba 3e
       0.16116627 -0.23827256 -0.17187375 0.36509207
000330 9a c4 8d be ec d4 f1 be 6c 2f d6 be 77 ce 1e 3d
       -0.27689058 -0.4723276 -0.41833055 0.03877112
000340 e9 3f bb bd cc f2 ac 3d 7b d2 d9 bd ba 2e 12 bc
       -0.09143049 0.08444747 -0.10635849 -0.008922273
000350 30 c4 2f 3d 56 95 95 bf e4 2c 32 3f 27 1f 5c bf
       0.04291171 -1.1686199 0.6959975 -0.85985035
000360 29 17 30 3f 90 92 05 bf 1a a8 e0 bf 48 5c ab 3d
       0.6878534 -0.5217676 -1.75513 0.083672106
000370 f0 ed b9 bf 67 11 3d 3f 35 35 b2 3b 85 36 89 3f
       -1.4525738 0.7385468 0.0054384717 1.0719763
000380 ac 2a b2 bf ed e9 bb be 01 b5 13 3f fc 3d 57 bf
       -1.3919272 -0.3670191 0.57698065 -0.84078956
000390 7f 18 93 be ce 50 b0 bc 89 b5 a6 bd 72 67 54 be
       -0.28729627 -0.021522906 -0.08140094 -0.20742586
0003a0 16 c7 05 be 41 51 91 be dd 42 50 be f1 bd 38 be
       -0.13064227 -0.28382304 -0.20338006 -0.18041207
0003b0 02 dd a9 3e 80 c9 29 3e e6 ba 20 be 7f 97 85 bc
       0.33176428 0.16580772 -0.15696296 -0.01630759
0003c0 d9 f5 94 bc 63 95 d3 be 2a ba 31 bd a2 61 d6 bd
       -0.018183636 -0.4132491 -0.04339043 -0.10467841
0003d0 fb 5c 11 be 8b 28 64 be 78 66 86 be 70 ec dc bb
       -0.14195625 -0.22281091 -0.26250052 -0.0067420527
0003e0 e8 66 44 be a3 04 7a be a9 83 9c be 63 2c 7d 3f
       -0.1917988 -0.24415831 -0.305692 0.98895854
0003f0 cb d8 87 bf 13 93 3a 3e cf 71 8e bf 79 93 19 3f
       -1.0613035 0.18220167 -1.1128482 0.5999065

features.layers.1.logic.1.layer.0.mlp.0.bias f4 [8]
000000 16 c1 63 be 52 02 67 bd 1c 69 28 be 0a 8e 76 bd
       -0.22241625 -0.056398697 -0.16446346 -0.060194053
000010 aa a3 b1 bd 75 13 4e bb 9e 0c 39 be a9 8e a3 bd
       -0.086737946 -0.0031444703 -0.1807122 -0.07986195

features.layers.1.logic.2.layer.0.mlp.0.weight f4 [8, 72]
000000 6c ca 31 be 89 70 33 be 98 8a b2 be 0b 7c e5 bd
       -0.17362374 -0.17523398 -0.34871364 -0.112053
000010 95 72 24 be ca 23 aa be 0a d5 15 3d 04 19 ca 3c
       -0.16059335 -0.3323043 0.036580123 0.024670132
000020 e0 c4 30 bd 66 d6 ba be 9a e3 64 be 53 22 86 be
       -0.043156505 -0.36491698 -0.22352448 -0.26198062
000030 1e 3f 00 3e 66 b7 8a be d6 cc 46 bf 48 1c b1 3e
       0.12524077 -0.27093047 -0.77656305 0.3459189
000040 b5 5d 34 bf e9 fe 2d be 2e 8b a1 3e 42 bd 4c be
       -0.70455486 -0.16991772 0.31551498 -0.19994071
000050 64 0f 2f bf bb d6 f4 be 53 0e ad 3d 4c 01 4d 3f
       -0.6838286 -0.47820076 0.08449998 0.80080104
000060 5a 6f cc 3d fa 16 0b 3f fb 5f db bd 89 64 c0 3f
       0.09982176 0.54331934 -0.10711666 1.5030681
000070 4f e5 d1 be cf 04 98 be 4b a8 a9 3d 05 6d f2 3e
       -0.4099526 -0.2969117 0.082840525 0.473488
000080 44 f3 25 3e ff a8 ae 3f c7 c7 28 3b cf f4 57 3e
       0.1620608 1.3645324 0.0025753842 0.21089481
000090 e8 72 84 bf 86 4a 48 3f fb 29 e9 3e 1c d4 f7 be
       -1.0347567 0.78238714 0.4553984 -0.48404014
0000a0 90 3e 25 bf 2f 3b ed 3e 36 bf 31 bf c7 04 3d bf
       -0.6454859 0.46334216 -0.6943239 -0.73835415
0000b0 26 2d 15 bf ce 13 c7 3e 29 32 30 be c6 28 c2 be
       -0.58272016 0.38882297 -0.17206635 -0.37921733
0000c0 8c ec 90 be 72 4c 16 bf df 80 d0 3d 8b 32 e3 be
       -0.2830547 -0.58710396 0.1018083 -0.443745
0000d0 aa cc 89 3e 4a bd 26 be 4b 3e 29 bf 4c 79 f1 be
       0.2691396 -0.16283146 -0.66110677 -0.47162855
0000e0 32 3e 97 3b 35 ef 3d 3f ad 0b 17 bf db 75 86 be
       0.0046155686 0.74193126 -0.5900219 -0.26261792
0000f0 7b 8c b2 be 22 62 0b bf 8b 51 2c 3d 0c 16 c9 3f
       -0.34872803 -0.54446614 0.042069953 1.5709853
000100 c6 11 b2 bc 0d 70 17 3f 90 e1 a9 be e0 ea 07 bf
       -0.02173699 0.5915535 -0.33179903 -0.53092766
000110 11 0b 62 3e ea e8 d2 3f 46 2c 47 be f6 38 3a be
       0.22074534 1.647733 -0.19450483 -0.18185791
000120 ed 06 18 3e ff ed 8b 3e 65 36 bd be 9e c3 75 be
       0.14846392 0.27330014 -0.36955562 -0.24000403
000130 b4 6a 49 be 68 b6 93 be 58 86 21 be 58 d3 67 bd
       -0.1966961 -0.28850102 -0.15773904 -0.056598037
000140 81 41 27 be 29 00 3b bd 1a 71 03 3e fa 6f b1 3d
       -0.16333582 -0.04565445 0.12836114 0.08663936
000150 43 f5 00 bf fa 19 89 3e 54 71 81 3e 7c 96 e0 3d
       -0.5037424 0.2677763 0.25281775 0.109662026
000160 96 5d 82 be dc 6f ae be e1 1d ff bd 9f 9f 83 3e
       -0.25462025 -0.34069717 -0.12456871 0.2570772
000170 75 5a 0f bf 65 24 51 be af 9c a1 bd 61 dd 3e 3f
       -0.559974 -0.2042404 -0.07891213 0.7455655
000180 ed 27 c8 be 64 d0 84 be 26 11 1b bf c3 79 0f 3f
       -0.3909296 -0.2594024 -0.6057304 0.5604517
000190 eb 02 c1 be b0 ea 0c bf 73 f0 c6 be b0 ac 5e be
       -0.3769754 -0.55045605 -0.38855323 -0.21745563
0001a0 d2 3e c6 be 28 e3 57 be 58 c7 fa bd bf 01 db 3e
       -0.38719803 -0.21082747 -0.12245053 0.4277477
0001b0 15 73 1c 3f 55 32 2f 3f b5 a8 73 be ab d0 2b be
       0.611131 0.68436176 -0.23794825 -0.1677882
0001c0 1d 8e d7 bd c5 09 84 be 7e c8 07 be bf aa 84 be
       -0.10525153 -0.25788704 -0.13260075 -0.2591152
0001d0 d6 19 99 bd 8e f1 75 be e8 eb e4 3d 1b ef 45 3e
       -0.07475631 -0.24017927 0.11177808 0.19329493
0001e0 5a 74 c8 be 63 9e f0 3a aa ba 17 bd 58 42 9d be
       -0.3915127 0.001835775 -0.03704325 -0.3071468
0001f0 15 8d 9a be 00 65 b6 be 00 8a ec be fc fc 64 3e
       -0.30185762 -0.35623932 -0.46199036 0.22362131
000200 cb 63 95 3d ee e6 18 3f da e8 93 be e6 ef ce be
       0.072944246 0.5972737 -0.2888859 -0.40417403
000210 db 0a 05 bf 6f a3 1b be 53 14 02 bf a0 b6 19 3f
       -0.5196969 -0.15199064 -0.5081226 0.6004429
000220 28 6a c0 bd aa 74 31 3f d6 b2 00 bf 35 d4 3b be
       -0.09395248 0.6931864 -0.5027288 -0.1834267
000230 f8 30 a9 be 62 1c fa 3d ff 1a 8f be b6 f4 5a bf
       -0.33045173 0.12212445 -0.27950284 -0.8552965
000240 70 80 3e 3e 5c 5b 6b bd 95 60 fa 3b 03 54 8b be
       0.18603683 -0.057460174 0.007640908 -0.27212533
000250 49 3d f8 bd 7b 80 86 3d f8 82 a4 be 38 12 82 be
       -0.12121064 0.065674745 -0.3213117 -0.25404525
000260 bd d5 91 be 51 7a e7 bd 3c 2e 31 3e 0f 24 23 3d
       -0.28483382 -0.11302627 0.17302793 0.03982931
000270 07 84 4a be 56 fe 2f 3e 88 b8 2d bd de f9 1d 3e
       -0.19776927 0.17186865 -0.04241231 0.15427348
000280 ed 9a 4a 3e 8d 80 d7 be 36 eb a7 bc 65 c9 bb 3d
       0.19785662 -0.42090264 -0.0204979 0.09169272
000290 96 a4 e1 3e 4b b7 02 bf 7f eb 18 3d 47 8e 7f bf
       0.44070882 -0.5106093 0.03733396 -0.99826473
0002a0 a8 b1 9f 3d 0b 27 67 bf b2 f6 ec 3e 63 83 b5 bf
       0.07797557 -0.9029395 0.46281964 -1.4180721
0002b0 7c a8 7f 3e 53 bb c0 bd a3 70 37 3e a5 9a 29 bf
       0.24966615 -0.09410729 0.17914061 -0.66251594
0002c0 81 57 8f bd 72 44 c4 bf af a8 2d bd f1 46 0f bf
       -0.06999112 -1.5333388 -0.042397197 -0.55967623
0002d0 7f 3c 88 3f e5 3e a9 3d 4b 30 09 bf 1b c9 15 bd
       1.0643462 0.08263949 -0.53589314 -0.036568742
0002e0 31 f4 aa 3c c4 67 e9 be 7a 4a d8 bc f2 c9 02 3e
       0.020868393 -0.4558698 -0.0264027 0.12772349
0002f0 5e 07 b3 bd 2f 5b 3d be 1b 04 81 bc 65 66 96 3d
       -0.087416396 -0.18491815 -0.015749028 0.07343749
000300 aa b2 2e 3e 6d 2f b8 be 38 bc 08 bf 51 01 df 3d
       0.17060342 -0.35973683 -0.534122 0.10888923
000310 21 e0 0a 3e 1d ba 93 be 1a c6 65 3e 94 53 82 be
       0.13562061 -0.2885293 0.22438851 -0.2545439
000320 01 59 81 bd 3a d0 93 bf b7 7c 7e 3e 44 3e 90 be
       -0.06315804 -1.1547921 0.24852262 -0.28172505
000330 15 d4 ab 3e 61 ad be be bd 94 9d 3e 82 a1 bb bf
       0.33560243 -0.37241653 0.3077754 -1.4658663
000340 c2 41 cc 3d ae 1b 5a bf 59 88 dc 3e 67 38 7f 3d
       0.0997348 -0.85198486 0.43072775 0.06230965
000350 e3 66 c8 bd 82 20 e9 bf 54 82 6e 3e dc 56 81 bd
       -0.09785249 -1.8213046 0.23291904 -0.06315395
000360 46 8a ea 3d ad 1f 35 3d 0a 59 0d bf 04 9b 08 be
       0.11452155 0.04421966 -0.5521399 -0.13340384
000370 2e ba f2 bd 36 88 e1 be 6d cf ae bc 9c d8 0b be
       -0.11851917 -0.44049233 -0.021339143 -0.13656849
000380 76 95 01 be c2 e0 a4 be 0a d6 3c be 1b 00 01 be
       -0.12654671 -0.32202727 -0.18441024 -0.12597696
000390 ca 54 43 3e 3b 86 29 be 55 81 45 bf 0d ed 12 3f
       0.19075313 -0.16555111 -0.7715047 0.5739296
0003a0 51 a9 36 bf 21 01 04 be 70 3f 03 3f d8 8b 9c bd
       -0.71352106 -0.12891056 0.5126867 -0.076438606
0003b0 4d cb 22 bf 0b b5 4b bf a6 49 5b 3e 4d 86 12 3f
       -0.6359146 -0.79573125 0.21414813 0.57236177
0003c0 4f bd ea 3d 9e 3c 92 3e c4 ef 46 be 88 37 c3 3f
       0.11461889 0.28561872 -0.19427401 1.5251322
0003d0 d4 34 04 bf 19 b9 be be 78 8b 40 3e aa 08 18 3e
       -0.5164311 -0.37250593 0.18803203 0.14847055
0003e0 61 21 21 be 67 7f b0 3f af e3 80 3d c6 e0 7f 3e
       -0.1573539 1.378888 0.06293427 0.24988088
0003f0 07 48 83 bf 85 2c 43 3f ae c2 df 3e 33 f6 25 bf
       -1.0256356 0.76239806 0.43703216 -0.64828795

features.layers.1.logic.2.layer.0.mlp.0.bias f4 [8]
000000 f6 18 6d be a2 82 45 be 13 81 0e be 48 43 59 be
       -0.23154053 -0.19288114 -0.13916425 -0.21217072
000010 42 21 01 3e 62 70 a0 3d 6b 4f 8b 3e 7b f5 22 3e
       0.12610343 0.07833935 0.2720903 0.15913956

features.layers.1.logic.3.layer.0.mlp.0.weight f4 [8, 108]
000000 99 67 94 3e e5 72 36 3e 76 62 74 3d 87 ca e9 bd
       0.2898529 0.17817266 0.059664212 -0.11415582
000010 6d 74 48 bd ae fa a6 be 23 3a fb bc b9 e9 45 3e
       -0.048939157 -0.32613128 -0.03066737 0.1932744
000020 2e e1 a1 bd 9e 6f 30 be 66 ee de be 32 bc a0 3e
       -0.07904278 -0.17230079 -0.4354126 0.31393582
000030 7c 23 14 3e 7e d1 59 3d 3f 7b ae be 12 19 f6 bd
       0.14466661 0.053178303 -0.34078404 -0.120165005
000040 d0 a9 8e 3c 91 8b c6 3d b2 16 c3 be 9f 7e c3 be
       0.017414957 0.09694589 -0.38103253 -0.38182542
000050 30 49 85 3e 2b 24 fc bd 46 a2 5e be 8b c0 09 3f
       0.260324 -0.12311586 -0.2174159 0.5380942
000060 88 37 6c 3e 4e 54 7f 3d 01 ab 84 3e a8 60 11 be
       0.23068058 0.06233626 0.25911716 -0.14197028
000070 2d 48 a6 bd ec ed 37 be 7a e6 95 bd bc d8 13 bd
       -0.08119235 -0.17961854 -0.073193505 -0.036095366
000080 7a eb 02 bf 27 ca 4c 3c 22 fd 61 3e 42 ba c6 bd
       -0.5114056 0.012499369 0.22069219 -0.097034946
000090 08 0c 74 3e ed 46 8a 3e 86 31 c0 3d 71 59 d4 3d
       0.23832715 0.27007237 0.09384446 0.10368622
0000a0 e9 7d 57 3d c7 3c 20 3e 2a 46 2f be 02 17 29 3e
       0.05261031 0.15648185 -0.17116609 0.16512683
0000b0 30 23 42 3e af bf 77 bd 67 a8 10 3e 34 76 18 bf
       0.18958735 -0.060485538 0.1412674 -0.59555364
0000c0 cd dc e1 bd 5c 64 b7 3d 0e af 14 3e 2e c6 92 be
       -0.110284425 0.08954689 0.14519903 -0.28666824
0000d0 42 e6 30 3e 53 4e 8a be c7 05 ee be 3f 0e ce be
       0.17275336 -0.27012882 -0.46488783 -0.40245244
0000e0 fb ed 97 3e b1 08 06 be e4 d7 99 be b2 cf d3 3e
       0.29673752 -0.13089253 -0.30047524 0.41369396
0000f0 f0 c9 7d 3d 5f 0e 3c 3d d2 8a 5d 3e 93 02 ac bd
       0.06196016 0.045912143 0.21634987 -0.083989285
000100 12 c0 65 bd 01 dd 56 be 08 0f 73 3c d8 93 00 be
       -0.056091376 -0.20982744 0.014835127 -0.12556398
000110 b8 8f 68 be a6 f3 c5 3d d3 7f 2d 3e 06 fa fd bd
       -0.22711074 0.09665613 0.16943292 -0.12401204
000120 66 5b 6c 3e 4d 88 c4 3e 1e 16 77 3d f3 66 0c 3d
       0.2308174 0.3838524 0.060323827 0.034277868
000130 ba e1 1f 3e f0 e4 6f be 9c 93 24 bd cb 19 4a 3d
       0.15613452 -0.23427176 -0.040179834 0.049341004
000140 9d ae c9 bd ab e0 e1 3b a9 d0 7f 3d 70 f3 c5 be
       -0.09847758 0.0068932376 0.062454853 -0.3866229
000150 2b cd c1 be 8d e3 08 3e 91 97 8f 3e 54 54 b3 be
       -0.37851843 0.13368054 0.28045323 -0.35025275
000160 b9 8f 66 3e e7 fe 88 be f8 f9 ba 3e 0a 9f bc 3e
       0.22515763 -0.26756975 0.36518836 0.36840087
000170 69 53 b0 3e 08 dd a1 3c 20 de a4 bd 67 4b 66 be
       0.34438637 0.019758716 -0.080501795 -0.22489701
000180 51 a7 81 be b4 17 06 3e 4d 0b cc bd 57 f4 ab ba
       -0.25322965 0.1309498 -0.09963093 -0.0013119084
000190 03 11 5b be 3f 33 b0 3e fa 24 93 bb 8e 19 0c 3e
       -0.21393208 0.34414098 -0.004490492 0.13681623
0001a0 2b 53 4d be 5c 59 cb bd 7f d6 de bd ce 26 7a 3e
       -0.20051257 -0.09929153 -0.10880756 0.24428865
0001b0 3b cc 2f 3c 32 b5 a2 bd bd ee 00 be d5 1e 89 be
       0.010729845 -0.079447165 -0.12591071 -0.26781335
0001c0 10 c3 4b 3e df 94 e7 be 56 1d 5e 3f 01 5e 15 3e
       0.19898629 -0.45230767 0.86763513 0.14586641
0001d0 5c 48 e7 be 37 76 4f be 6a cb fc 3d 8e 76 af be
       -0.45172393 -0.20259939 0.12343486 -0.34270138
0001e0 45 e6 98 bd 6a b7 d8 3e 7c eb b5 3e 57 db 28 bd
       -0.074657954 0.42327434 0.35531223 -0.041224804
0001f0 92 61 24 3e 53 c8 07 be 50 34 26 3d 34 9c 3c 3e
       0.16052845 -0.13260011 0.040577233 0.18418962
000200 b1 09 ca be 83 08 3b bf 16 02 d8 3d 16 bb e9 bf
       -0.3946052 -0.7305986 0.10547273 -1.8260219
000210 e1 64 ef 3e b5 ad 46 3f d0 6d ff bf 6c b4 2e bf
       0.46756652 0.77608806 -1.9955387 -0.6824405
000220 95 d3 2a 3e a6 35 ff bd 00 af 5a be 3c 45 88 3e
       0.16682275 -0.124614045 -0.2135582 0.26615322
000230 49 22 18 3f f6 3f ac be 64 3f 95 3d 1d 89 d1 bd
       0.59427315 -0.33642548 0.072874814 -0.102312304
000240 c0 cd e3 bb 11 37 b1 bd 6e 79 25 3f 41 22 a6 3e
       -0.0069520175 -0.08653081 0.6463841 0.3244801
000250 64 4a 75 be 08 e3 51 3f 77 85 20 be 36 93 97 3d
       -0.23954159 0.8198705 -0.15675913 0.07401125
000260 90 13 45 3f f5 88 df 3e db 73 88 be c3 94 32 3e
       0.76982975 0.43659177 -0.2665089 0.1743956
000270 e4 ba 79 3e fe 78 8c 3e f6 cf 0a be bf 5b 98 3e
       0.243877 0.2743606 -0.13555893 0.29757497
000280 2e 33 b1 3d 52 ce 1e 3f 4c 65 32 3e 4a 44 d9 3d
       0.0865234 0.6203357 0.17421454 0.10608728
000290 f6 f2 83 3e 8f 18 94 3f 06 04 a6 bd 8b 76 65 3e
       0.25771302 1.1569995 -0.08106236 0.22408502
0002a0 97 50 3a bf 4e ef 19 3e b5 c7 2b 3f c2 9c 19 3f
       -0.7277922 0.15032694 0.67101604 0.6000482
0002b0 bb c5 f2 bd 87 d5 a4 3e 30 28 63 3e 6d 31 91 3e
       -0.1185412 0.32194158 0.22183299 0.2835802
0002c0 93 10 19 3e c8 69 87 3c a0 f4 59 3b c5 9d 36 3f
       0.14947729 0.016529933 0.003325738 0.7133449
0002d0 95 1f ef be 3f 99 ed be 1d 12 8d 3e 7c 69 84 be
       -0.46703783 -0.4640598 0.27552882 -0.25861728
0002e0 c2 52 85 3e 6b 4e 3d bf 37 d3 7c 3e c0 1d f4 3d
       0.26039702 -0.7394778 0.24689947 0.11919737
0002f0 5d dc 4a bf 58 c6 6d be 09 e2 29 be 55 4b fa 3d
       -0.792425 -0.23220193 -0.16590132 0.122214
000300 f3 3a 71 3e a7 32 78 3e de 9e 7b be 19 1f 0a 3f
       0.23557644 0.24238072 -0.24572322 0.539537
000310 0f c6 ad 3e ac de 86 3e 87 4d ca be bc 67 d2 be
       0.3394017 0.2634176 -0.39512274 -0.41094768
000320 c1 98 46 3e a8 f3 7b 3f 81 6b 60 3e 9a 63 ca bb
       0.19394208 0.98418665 0.2191601 -0.006176424
000330 f7 9a 31 3f 16 e6 3e be 9f 2b 64 be a3 66 2d 3f
       0.6937708 -0.18642458 -0.22282265 0.67734736
000340 71 d2 eb ba d7 2d d7 bd bc 59 c2 3d 1e 77 6a 3e
       -0.0017991794 -0.1050679 0.09489772 0.22897002
000350 5f 73 8b bd 8d 45 0d 3f 97 87 b0 3e 26 1d 1b 3d
       -0.06809115 0.5518425 0.34478447 0.037869595
000360 ff 2d a1 be 43 8b d2 be 38 c2 15 3e 26 16 61 bc
       -0.31480405 -0.41121873 0.1462487 -0.013738191
000370 6c a8 92 bd 47 44 68 bd 0e 78 81 bd 7a 05 c7 bd
       -0.0716103 -0.05670574 -0.06321727 -0.097178414
000380 df 2f 2e 3d 71 7b 1c bd 9f 4d 81 3e c8 b0 ae be
       0.042526122 -0.03820366 0.25254533 -0.34119248
000390 1c 94 34 3e 37 5e 51 bf e0 d6 09 bf dc 57 1a 3e
       0.17634624 -0.81784385 -0.538435 0.15072578
0003a0 a0 de 13 bf b2 7f fe be 43 9f 10 3f cb fa 0c 3f
       -0.57761574 -0.497068 0.56493014 0.5507018
0003b0 ea 58 4b bc ff f7 50 3c db be 08 bb 48 d1 4d bf
       -0.0124113355 0.012754439 -0.0020865712 -0.8039746
0003c0 e6 36 98 bf d4 da eb 3e 3a 03 28 bf 13 85 ec 3d
       -1.1891754 0.4606539 -0.65629923 0.115488194
0003d0 56 39 11 bf 56 60 94 3e 95 0d 5e 3d ae d6 5a bf
       -0.5672811 0.28979748 0.05421217 -0.85483825
0003e0 11 14 4f bf fb ef 31 be 49 4d 6a bf e5 26 ce 3d
       -0.80889994 -0.17376702 -0.9152418 0.10066012
0003f0 37 e3 e4 be 6c 56 bf be 90 9c 98 bd 0d cf f8 bb
       -0.447046 -0.37370622 -0.07451737 -0.0075930418

features.layers.1.logic.3.layer.0.mlp.0.bias f4 [8]
000000 c4 b1 84 bb 0f cd 8b 3e 4f 83 df bd 3b d7 ec 3d
       -0.0040495116 0.27304885 -0.10913717 0.115644895
000010 9e 38 30 bd ff 0a 80 3b bb 0e 20 3d ec 07 0f bf
       -0.043022744 0.003907561 0.039076548 -0.5587146

features.layers.2.logic.0.layer.0.mlp.0.weight f4 [8, 52]
000000 5a c6 dc be 2b 8d 34 be 13 af 35 bf 66 b5 f2 be
       -0.4312008 -0.17631976 -0.7097027 -0.4740402
000010 35 82 ea be 89 e5 a5 be 8a 4e 0e bf 77 4d f4 be
       -0.45802465 -0.32401684 -0.5558859 -0.4771535
000020 4c 7f 4e be 9c a0 28 be 9f a0 ab bd 14 f2 d3 bc
       -0.20165747 -0.16467518 -0.083802454 -0.025872268
000030 69 6d 88 be 61 99 81 bd 56 fc 95 be f2 e5 3e bd
       -0.26645973 -0.06328083 -0.2929408 -0.04660601
000040 a9 48 90 bf 04 01 1a 3d 75 89 80 bf 90 b8 10 bd
       -1.1272174 0.037598625 -1.0041949 -0.035332263
000050 04 69 5b bf 8f 10 0f bf 7f 5c 7a bf 56 d7 24 bf
       -0.85707116 -0.5588464 -0.9779739 -0.64391077
000060 af 76 56 bf ce 7b 44 bf 8f b2 3e bf ea 99 e7 be
       -0.83774847 -0.7675141 -0.7449121 -0.45234615
000070 a7 4f 59 bf c8 66 5b bf 6a 0a 94 bf aa c4 60 bf
       -0.84887165 -0.85703707 -1.1565678 -0.87800086
000080 c7 16 4d bf cf fc 2f bf 7f 79 2a bf 61 da db be
       -0.8011288 -0.6874513 -0.6659164 -0.42940047
000090 3f 38 9c bf 20 86 60 bf eb 69 64 bf 11 4b 02 bf
       -1.2204665 -0.8770466 -0.8922412 -0.5089579
0000a0 d4 ce 8f bf c4 d4 66 bf 19 f7 8d bf 26 7b 82 bf
       -1.1234994 -0.90168405 -1.1091033 -1.0193832
0000b0 a3 8c 54 bf 86 04 89 be 95 6e 86 bf 8d 65 89 be
       -0.83027095 -0.26761264 -1.0502497 -0.2683529
0000c0 c9 d7 93 bf dd e2 7f bf 01 75 85 bf 81 dc b0 be
       -1.1550227 -0.9995554 -1.0426332 -0.3454323
0000d0 7d b4 c3 be c5 03 35 be c7 33 f0 be 9f bb 75 be
       -0.3822364 -0.17677219 -0.46914503 -0.23997353
0000e0 6d 97 9a be 07 b1 6f be 34 3b 08 bf 71 5c cd be
       -0.30193654 -0.23407374 -0.53215337 -0.4010959
0000f0 a2 79 6f be 8e bf ed bd c3 5a 1b bd 56 4b 01 be
       -0.23386243 -0.11608802 -0.037928354 -0.12626395
000100 29 7b 04 be 74 88 19 be f2 c1 82 be 17 76 5f 3c
       -0.12937607 -0.14993459 -0.25538594 0.013638995
000110 65 8a 89 bf 9c c0 01 be 76 aa 92 bf 8c 2f c5 3d
       -1.074536 -0.12671131 -1.145827 0.096282095
000120 c8 52 28 bf 04 93 05 bf 83 2c 4d bf 04 a0 3b bf
       -0.65751314 -0.52177453 -0.80146044 -0.7329104
000130 5c 55 5a bf ab b9 5d bf 8d 4f 4e bf a0 54 d3 be
       -0.852865 -0.8661143 -0.80590135 -0.412755
000140 11 59 50 bf a1 da 58 bf ae da 8f bf f3 c3 6d bf
       -0.81385905 -0.847086 -1.1238611 -0.9287712
000150 4a e3 66 bf 6a 34 12 bf 32 1a 32 bf 3d fe eb be
       -0.90190566 -0.5711123 -0.6957122 -0.46092406
000160 cb 76 97 bf ba 5f 7a bf 8b 81 7f bf c4 b9 9d be
       -1.1833128 -0.9780232 -0.9980704 -0.3080579
000170 16 6c a9 bf e4 56 3a bf 80 ee 8a bf 40 78 41 bf
       -1.323611 -0.72788835 -1.0854034 -0.7557411
000180 59 25 75 bf 6e ca 97 be 89 24 80 bf a5 d7 84 be
       -0.95760113 -0.2964663 -1.001115 -0.25945774
000190 93 56 a8 bf f2 1f 28 bf bc 53 8e bf 48 59 87 be
       -1.315142 -0.65673745 -1.1119304 -0.26435304
0001a0 82 20 9c be 49 5e 90 be 71 a9 ff be 2d 1e 8c be
       -0.30493551 -0.28196934 -0.4993396 -0.27366772
0001b0 97 43 d4 be 47 44 17 be be 80 e6 be 2a 07 04 bf
       -0.41457817 -0.1477214 -0.45020097 -0.5157343
0001c0 76 e1 4b be af 8b 53 be 5a 5b 57 be 8a 42 0a bd
       -0.19910225 -0.20658754 -0.21030942 -0.033754863
0001d0 4f 84 97 bd 6e 0c 6b be 91 43 6f be ca 4d 02 3c
       -0.07398283 -0.2295396 -0.23365618 0.007953117
0001e0 28 cb 7f bf 3c 49 6a 3d 5b 3a 9f bf 3e a6 af bd
       -0.99919367 0.057198748 -1.2439684 -0.0857663
0001f0 68 40 2c bf 3b 7e 94 be d1 56 41 bf ef 9e 4d bf
       -0.67285776 -0.29002556 -0.75523096 -0.8032064
000200 79 36 5f bf 0d d2 3e bf a3 37 2d bf 27 2e f9 be
       -0.87192494 -0.7453926 -0.6766302 -0.48668024
000210 06 46 81 bf 6c db 39 bf 09 60 8b bf e0 5a 63 bf
       -1.0099494 -0.72600436 -1.0888683 -0.8881054
000220 fa e3 38 bf 8d e4 28 bf 45 a6 1b bf 0e b4 bd be
       -0.72222865 -0.6597374 -0.6080058 -0.37051433
000230 a5 4f 92 bf 1d 9b 7a bf c6 6d 5b bf 7c ec ae be
       -1.1430556 -0.97892934 -0.85714376 -0.34164798
000240 7b ed 8c bf 03 3a 76 bf c9 c0 99 bf 65 ce 51 bf
       -1.1009973 -0.9618227 -1.2011958 -0.8195556
000250 b3 96 78 bf 9c 12 b4 be 14 f7 70 bf 20 ea a0 be
       -0.9710495 -0.35170448 -0.9412701 -0.31428623
000260 a7 5b a6 bf a6 ee 54 bf 7e 8b 8a bf ae 49 ca be
       -1.299672 -0.8317665 -1.082382 -0.39509338
000270 0d 19 e4 be 41 c2 bc be 32 f1 17 bf 0c ab c6 be
       -0.44550362 -0.36866954 -0.5935241 -0.38802373
000280 22 b1 fa be c7 fd cc be b6 87 0f bf a8 cd 17 bf
       -0.48963267 -0.40037367 -0.56066453 -0.5929818
000290 7c f4 26 bd 96 eb 4b bd 30 2e 11 be 00 85 45 be
       -0.040760502 -0.04978522 -0.14177775 -0.19289017
0002a0 4d 0c 69 bd 48 bd 85 be 27 57 53 be c0 0b 88 bb
       -0.056896497 -0.26120973 -0.20638715 -0.0041517913
0002b0 46 2c 9c bf 5e 6d 8c bd da ec 8a bf 50 2b ca 3d
       -1.2201011 -0.06856798 -1.0853531 0.098715425
0002c0 74 e3 24 bf 06 2a a8 be fc 9f 54 bf 4e 13 19 bf
       -0.64409566 -0.3284456 -0.83056617 -0.5979508
0002d0 72 65 6a bf 90 bf 50 bf de fd 6f bf 65 95 f0 be
       -0.91561043 -0.815423 -0.93746746 -0.4698898
0002e0 a1 29 62 bf 84 70 3d bf 88 c7 8e bf 6e 64 6b bf
       -0.8834477 -0.7399981 -1.1154642 -0.9195012
0002f0 ce 34 5d bf eb 03 47 bf 53 93 27 bf 80 a8 d6 be
       -0.864087 -0.77740353 -0.65459174 -0.4192543
000300 2b 81 88 bf 38 2e 56 bf c5 30 88 bf de 97 d9 be
       -1.0664419 -0.83664274 -1.0639883 -0.42498678
000310 1c 00 a4 bf 6a b8 4c bf 57 ce 99 bf 7e 70 60 bf
       -1.2812533 -0.79968894 -1.2016095 -0.8767165
000320 5f dd 69 bf 3c ff b7 be 5d 30 68 bf 66 3a 7d be
       -0.9135341 -0.35936916 -0.90698797 -0.24729308
000330 1a 9e a0 bf b4 5c 54 bf b4 ec 93 bf e5 1a 68 be
       -1.2548249 -0.82953954 -1.1556611 -0.2266651
000340 4b 3f 11 bf 8f e3 bd be ec 9e 39 bf 1a 79 eb be
       -0.567372 -0.37087676 -0.7250812 -0.4599083
000350 14 83 01 bf ab 51 dd be 3c 81 d2 be 65 0f 04 bf
       -0.50590634 -0.4322637 -0.41114223 -0.5158599
000360 8d bf 33 be 69 aa 48 be 42 c2 6d be 71 80 6e be
       -0.1755354 -0.19596256 -0.23218635 -0.23291184
000370 29 bc 24 be 31 fd 39 be a8 8a b1 bd c3 39 69 be
       -0.16087402 -0.18162991 -0.08669025 -0.2277594
000380 4b ca 7f bf 9e 75 4b bd 87 fb 85 bf b6 58 c0 3d
       -0.9991805 -0.049672715 -1.0467385 0.0939192
000390 2e c9 58 bf f4 d2 e0 be c6 0e 3e bf b6 f2 39 bf
       -0.84681976 -0.43910944 -0.7424129 -0.7263597
0003a0 87 b9 85 bf 7b 73 6b bf f2 34 78 bf a0 d8 1f bf
       -1.0447243 -0.91973084 -0.9695579 -0.6243992
0003b0 75 3c 8c bf ab da 33 bf f5 97 93 bf 6c ed 6f bf
       -1.095595 -0.70255536 -1.1530749 -0.9372165
0003c0 6a 60 44 bf ea d2 62 bf 8e 30 2f bf 12 e6 ff be
       -0.76709616 -0.8860308 -0.68433464 -0.49980217
0003d0 dd 4a 90 bf 7e 1b 7a bf 8a 81 50 bf b7 17 c8 be
       -1.1272846 -0.976982 -0.8144766 -0.39080593
0003e0 7a 7e 89 bf 33 cd 81 bf a9 7c 96 bf 14 22 92 bf
       -1.0741723 -1.0140747 -1.1756793 -1.141665
0003f0 ea e4 59 bf 72 98 c8 be d5 83 4f bf 0f 35 06 bf
       -0.8511492 -0.39178807 -0.81060535 -0.5242471

features.layers.2.logic.0.layer.0.mlp.0.bias f4 [8]
000000 bc d4 97 bf d3 90 84 bf 0e df 9c bf 79 47 7b bf
       -1.1861796 -1.0356697 -1.2255571 -0.98155934
000010 15 50 8c bf 18 45 81 bf 59 36 85 bf e6 66 8d bf
       -1.0961939 -1.0099211 -1.040721 -1.1047027

features.layers.2.logic.1.layer.0.mlp.0.weight f4 [8, 70]
000000 6f 58 8c 3d d6 52 ac 3d 31 7f 71 bd 3d 62 b2 3b
       0.06852805 0.08414237 -0.05895919 0.00544384
000010 c3 19 83 3d f4 9e 00 bd 35 b9 c1 3d e0 3a 9e bd
       0.06401398 -0.03140159 0.094591536 -0.07726073
000020 34 1d 0a bd 8a 1b 86 3d 68 68 02 3d 9d 57 ad bb
       -0.033719257 0.065482214 0.03183785 -0.0052899853
000030 61 64 ca bc 62 14 7f bd dd 85 b6 3d 86 1e 50 3c
       -0.024706068 -0.062275298 0.08912251 0.01270259
000040 3e a7 7a 3e c7 f6 c3 3d 5f e3 89 be b7 0e 4a 3d
       0.2447786 0.095685534 -0.26931283 0.04933044
000050 84 de 18 3d 58 0d 7c bd e5 11 79 3e ee 0c 13 3e
       0.037321582 -0.061536163 0.24323232 0.14360401
000060 d5 a7 fb 3d 88 6a 0f be ff f7 41 3f 8c f2 4f bf
       0.12287871 -0.14005482 0.75769037 -0.8122947
000070 c2 06 2e 3f b4 06 44 3f 91 06 54 bf 31 7a 5c bf
       0.6797906 0.7657273 -0.8282252 -0.8612395
000080 af c1 51 3f ee df 65 bf b9 6d 2c 3d e8 f7 f7 bd
       0.8193616 -0.89794815 0.042096827 -0.12107831
000090 4a 7e 3f bd 17 58 e3 bd 32 e8 e4 3d 7d 1f 49 3f
       -0.046751298 -0.11100786 0.111771 0.7856367
0000a0 8c 5f 22 bf 2d 01 ac 3e 6b c3 2d bf 4f 37 22 3e
       -0.6342704 0.33594647 -0.6787631 0.15841411
0000b0 c4 a8 8e 3f 8a 0f e3 3d 56 6e 5d 3f c5 9f 37 bd
       1.1145253 0.11086948 0.86496484 -0.044830102
0000c0 45 31 12 be cb 0d 5f bf 8e 77 5a 3f 30 bd a8 3d
       -0.14276607 -0.8713042 0.85338676 0.0823921
0000d0 29 53 32 bf 7f 9f 4c 3e 1e b9 5c 3f 90 55 2d 3f
       -0.6965814 0.19982718 0.86219966 0.67708683
0000e0 2f 73 f4 3d 18 e9 01 bf e4 ea 0e bf e8 87 84 3e
       0.11936032 -0.507463 -0.55827165 0.25884938
0000f0 6c df ad 3f 0f d7 c6 3e 6c 95 17 bf 87 ab 0a 3a
       1.3583808 0.38835952 -0.59212375 0.0005289842
000100 d6 d9 93 be 07 0c 1f bf f9 01 59 3d 01 44 56 3f
       -0.28877133 -0.6212773 0.052980397 0.83697516
000110 96 bf df be 1a 9d c1 be 70 02 08 be e2 64 31 bd
       -0.43700856 -0.3781517 -0.1328218 -0.0433091
000120 6b be a4 bd 89 35 07 bc a4 29 22 bd d0 29 9f bd
       -0.08044132 -0.00825251 -0.039590493 -0.07771647
000130 6b f7 19 bd 2a fe 12 be 17 82 9e bd d1 b9 8e bd
       -0.03758947 -0.14354768 -0.077396564 -0.069690354
000140 24 4a db bc aa 0d 13 be 95 f3 ed bd 02 97 fb bd
       -0.026768751 -0.14360681 -0.11618725 -0.12284662
000150 db 2e df 3a 39 25 ca bd a7 63 db 3d fc f3 5f 3e
       0.0017027514 -0.09870381 0.107123666 0.21870416
000160 7b af 96 3e 04 e5 89 be de de ab be 8d 4e 2d 3e
       0.29430756 -0.26932538 -0.33568472 0.16924496
000170 46 65 ca be 5d 70 ca be ee 35 c5 be de 6d f6 3d
       -0.3953039 -0.3953885 -0.38517708 0.12032674
000180 6a 91 85 bf 20 4e 4b 3f c7 46 40 bf b2 d3 62 bf
       -1.0435002 0.79416084 -0.75108 -0.8860427
000190 2c 42 54 3f e5 aa 50 3f a7 66 6c bf 4b f6 5f 3f
       0.8291347 0.81510764 -0.92344135 0.8748519
0001a0 53 7a 6f be d7 8d 42 3e 85 ea 57 be 44 f0 03 3e
       -0.23386507 0.1899942 -0.21085556 0.12884623
0001b0 ea 2b 6f be 9b f7 84 bf 2b 07 0d 3f 8e 26 35 bf
       -0.23356596 -1.0388063 0.5508906 -0.70761955
0001c0 6a bd 03 3f c0 fb 62 be 09 20 a3 bf ea 67 40 bd
       0.514609 -0.22166348 -1.2744151 -0.0469741
0001d0 2f f6 92 bf cc fa 34 3e 1e 3c 61 3d a0 36 54 3f
       -1.1481379 0.17673796 0.054988973 0.8289585
0001e0 ab 7f 82 bf fe ab b7 be 6e fc 11 3f 49 89 1d bf
       -1.0195211 -0.35873407 0.570258 -0.61537606
0001f0 3d c6 67 bf 84 bd 5b be 19 a6 83 be ff e2 bb 3d
       -0.9053686 -0.21459013 -0.2571266 0.091741554
000200 e1 fd 2a 3f 7d ff 0f be d7 31 b3 bf 60 65 1f be
       0.6679364 -0.14062305 -1.3999585 -0.15566015
000210 df 6a 17 3f 37 f5 61 3e 09 3d af 3e c5 ae f9 3e
       0.5914745 0.22066198 0.34226254 0.4876615
000220 73 d5 be bd 62 4a 87 bf 73 96 a8 3e e1 1b 9b 3e
       -0.09318056 -1.0569575 0.32927284 0.30294707
000230 9b b7 29 bd 66 99 73 3d ed 9a d1 bc 43 41 28 3c
       -0.041434865 0.059472464 -0.02558657 0.010269466
000240 82 d4 e7 bc 1a 97 56 3d fd eb d4 bd 06 f2 32 3d
       -0.028299574 0.052390195 -0.10396574 0.043687843
000250 97 83 b8 bb 58 87 e5 3c b8 34 48 bd e5 1d 35 bd
       -0.005630921 0.028018638 -0.0488784 -0.044217963
000260 b7 d9 36 3d 2c 47 a1 3b 38 97 c2 bd 72 ce 81 bd
       0.044641223 0.0049218144 -0.09501499 -0.063382044
000270 3e ba 47 3e cc c8 0a be 20 55 3d be ad 30 98 3d
       0.1950464 -0.1355316 -0.18489504 0.07431159
000280 a3 8b e6 3d 2e 36 51 bd 64 03 2e bc c5 f7 27 3d
       0.11257102 -0.05107706 -0.010620926 0.041007776
000290 3c 4e 8a 3d 24 9a ae bc 48 d8 30 3f bb 81 35 bf
       0.06753203 -0.021313734 0.6908002 -0.7090108
0002a0 9f 78 18 3f 7b de 28 3f ae b1 40 bf a1 0c 3e bf
       0.59559053 0.6596448 -0.7527112 -0.7423802
0002b0 af e6 59 3f 65 21 4c bf 91 8b 61 3d d0 e1 66 be
       0.8511762 -0.79738456 0.05506474 -0.22547078
0002c0 4d 86 15 3e cb 0f c0 bd af 9c dc 3d fe 74 69 3f
       0.14602013 -0.09378012 0.107720725 0.9119414
0002d0 bf 90 24 bf 66 19 52 3e 0d 4e 1d bf 69 b9 6b bd
       -0.64283365 0.20517501 -0.6144722 -0.057549868
0002e0 57 7d 81 3f 7c 73 fa bb 2e 5b 5f 3f e7 b1 6a 3c
       1.0116376 -0.0076431613 0.87248504 0.014324642
0002f0 0d f0 c0 3d 78 9b 3a bf 85 a0 2c 3f e5 8a 0d 3e
       0.09420786 -0.72893476 0.67432433 0.13822515
000300 ba ac 1e bf 71 91 9b 3e b5 7f 77 3f 6b 4a aa 3e
       -0.6198231 0.303844 0.9667924 0.332599
000310 05 5a d4 3d d8 06 c1 be 97 81 20 bf 47 ff 93 3e
       0.10368732 -0.37700534 -0.6269774 0.289057
000320 3c f0 aa 3f 96 a3 96 3e 99 33 0d bf 36 e0 7b bd
       1.3354564 0.2942168 -0.55156857 -0.06149312
000330 8b 88 bb be 7f d5 1d bf 3e a8 29 bd 0d f0 52 3f
       -0.36627612 -0.61653894 -0.041420214 0.8239754
000340 29 a3 d5 be 40 ef 29 be 48 dd 4b be db fc 49 bd
       -0.41726044 -0.16595173 -0.19908631 -0.049313407
000350 fb 30 fa bd 2d 78 bb bd ce 14 d3 bd 35 98 cb bd
       -0.122163735 -0.09153781 -0.103067026 -0.099411406
000360 57 a9 31 be 9d 8e 89 bd 91 29 4e bd 4a ea 19 be
       -0.17349754 -0.067166544 -0.05033261 -0.1503078
000370 3e bd c9 bd f6 33 ef bd 8e 28 66 bc 0c ab a5 bd
       -0.09850548 -0.11679833 -0.014047755 -0.08089265
000380 34 39 02 bd 07 70 f4 bd b0 67 28 3e f9 a7 87 3e
       -0.031792834 -0.1193543 0.16445804 0.2649534
000390 f9 4e 56 3e 0a 5a 4b be 2f b1 1d be a8 18 90 3d
       0.20928563 -0.19858566 -0.15399621 0.07035953
0003a0 65 b6 29 be 48 5a 86 be 97 f6 38 be 5a 6a 38 3e
       -0.16573484 -0.26240754 -0.18062817 0.1800932
0003b0 09 a5 77 bf be fc 52 3f 86 6c 36 bf e5 6e 7c bf
       -0.967362 0.82416904 -0.71259344 -0.9860671
0003c0 5e 47 80 3f 69 03 4d 3f ad 1b 62 bf 8f da 7d 3f
       1.002178 0.8008333 -0.8832348 0.9916162
0003d0 7c 05 54 bd f3 63 59 3e 7e 1f 4d bd 82 b4 83 3c
       -0.051763043 0.21229534 -0.05007886 0.016077284
0003e0 3d d4 87 be ab 6a 83 bf 34 5c 9e 3e 60 0e b4 be
       -0.26529112 -1.0266927 0.3092972 -0.35167217
0003f0 fa 1e e1 3e 52 a6 75 bd 6c 69 8c bf 99 63 97 bd
       0.43968946 -0.05997307 -1.0969672 -0.073920436

features.layers.2.logic.1.layer.0.mlp.0.bias f4 [8]
000000 82 8f 2d 3d fe 00 4e be 38 5f 1b 3e 72 bf c8 bd
       0.042373188 -0.20117566 0.15173042 -0.0980214
000010 44 a7 5e bc 29 af 3e bd 13 ff c2 bd 85 2a f2 bd
       -0.013589684 -0.046553764 -0.09521308 -0.11824516
