models/sort.pth (torch_old, 27869 bytes, 39 tensors)

features.layers.0.logic.1.layer.0.mlp.0.weight f4 [8, 12]
000000 c6 6e 52 be 02 a1 00 be b6 69 18 be 8f fd 8b be
       -0.20550069 -0.1256142 -0.14884076 -0.27341887
000010 98 4b 5a bd 11 4e 55 3f d8 e9 3d 3f 53 06 44 3e
       -0.053294748 0.83322245 0.7418494 0.19143037
000020 b8 3e 54 3e e0 23 31 be b3 85 92 be 4b 4f 3e bf
       0.2072705 -0.17298841 -0.2861763 -0.7433974
000030 0f d9 94 bd 5f dd 11 be 60 42 6f be c6 74 10 3e
       -0.07267963 -0.14244603 -0.23365164 0.14107046
000040 41 91 68 3e 13 17 6a 3f 25 32 f2 3e f4 74 45 3e
       0.2271166 0.9144146 0.47303882 0.19282895
000050 9e 4a 03 3e 8b e2 6c be 7f df 0d bf 61 88 08 bf
       0.12821433 -0.23133294 -0.5541915 -0.533331
000060 98 70 54 be 05 1a b3 be 1c d4 88 3d 98 df 50 3e
       -0.20746076 -0.3498079 0.06681082 0.20397794
000070 2f 80 53 ba 77 bc 2d 3f 7e 28 36 3f df 90 72 3e
       -0.0008068112 0.678657 0.71155536 0.23688076
000080 26 6e fe bd e6 4d 42 be 32 69 6a bd fb 1f 45 bf
       -0.12423353 -0.18975028 -0.05722923 -0.77001923
000090 bc 20 f2 3e 4a 83 e5 3e 7a 3b 42 be 0a 18 8d bd
       0.472906 0.44826728 -0.18968001 -0.06889351
0000a0 e5 f5 8d be 2e 07 93 be 58 f8 ce 3d 0a ad 8c 3d
       -0.27726665 -0.28716415 0.101059616 0.06868942
0000b0 f4 4c 1c be 89 78 20 be 64 23 d4 3e ca a8 d5 be
       -0.1526373 -0.1567098 0.4143325 -0.41730338
0000c0 c0 95 a7 be ad c4 eb be 8a 3c b7 bd 24 de e2 3d
       -0.32731438 -0.4604849 -0.08947094 0.11077526
0000d0 9e 5f c4 3e 6f 3c 08 3f 3f 3e 17 3f f5 dc 17 3f
       0.383542 0.53217214 0.59079355 0.5932153
0000e0 7c 80 6f 3e fe 31 f5 bd 62 ad ea bd e5 9f ca be
       0.23388857 -0.11972426 -0.114588514 -0.39575115
0000f0 79 69 fb be 7d da 1d be 34 54 6a 3e ab 85 01 be
       -0.49103907 -0.15415378 0.22883683 -0.12648647
000100 9a 81 b1 3d a6 b4 5a 3f c8 54 1f 3f c0 9a 2b 3f
       0.08667298 0.854319 0.6223874 0.67033005
000110 02 e3 29 be 70 fc d1 bc f6 62 0b bf 4e 02 35 bf
       -0.16590503 -0.025633067 -0.5444788 -0.7070664
000120 7e 56 cc 3e 33 a8 f3 3e 56 56 37 3e 72 24 e6 bd
       0.39909738 0.47589263 0.17904028 -0.1123742
000130 b9 28 73 be 8f 87 8c be c5 5a 20 bf ce 9e 2c bf
       -0.23746003 -0.27447173 -0.62638503 -0.67429817
000140 38 7f 97 3d 86 b5 33 3e 63 ce 10 3f 18 ce b6 3e
       0.07397312 0.17549714 0.5656492 0.35704112
000150 64 1f f4 3e d0 b1 09 3f f8 ff 81 3e 2c 96 5c 3e
       0.476802 0.53786945 0.253906 0.21541661
000160 ce 1f 42 bd 76 e5 1b bf 01 05 3f bf ab 75 62 be
       -0.047393613 -0.60897005 -0.7461701 -0.221152
000170 52 6d 3c 3e a8 c0 56 bd 9c 47 e4 3e 79 a6 0b 3f
       0.18401077 -0.052429825 0.44585884 0.5455089

features.layers.0.logic.1.layer.0.mlp.0.bias f4 [8]
000000 70 7f 2b 3e d1 2a 7c 3b 77 c1 df 3b b8 af 2f 3e
       0.16747832 0.003847767 0.0068284827 0.17156875
000010 e3 bc ef be 7f 67 0a 3e e7 25 52 3e 60 12 a0 3d
       -0.46823797 0.13516043 0.20522271 0.07816005

features.layers.0.logic.2.layer.0.mlp.0.weight f4 [8, 12]
000000 b6 d7 b3 be 7b d1 27 be 0c 78 25 3f eb 6e e9 3e
       -0.35125512 -0.16388504 0.646363 0.45592436
000010 5d 79 81 be c7 50 88 be 96 f7 3b 3f b4 ca ce 3d
       -0.25287905 -0.26624128 0.7342466 0.10097256
000020 de 68 8f be ba 1b e7 be 60 2f 08 bd 03 39 82 3e
       -0.28009695 -0.4513834 -0.033248305 0.2543412
000030 a8 72 5e 3f 14 f5 4a be 4d b7 b8 be 0e c2 62 be
       0.868937 -0.19820052 -0.36077347 -0.22144338
000040 b8 73 2b 3d 68 62 3d 3f b2 f7 cb be a6 9f 46 3e
       0.041858405 0.7397828 -0.39837414 0.19396839
000050 83 41 d7 3e c8 93 a2 3e 40 52 2a bd 92 ca 0e bf
       0.4204217 0.31753373 -0.041582346 -0.5577785
000060 7a 0e 27 be 60 86 b2 3d f0 dc b1 3e 9f ae aa 3e
       -0.16314116 0.08717036 0.34738874 0.3333635
000070 0a 08 2a be d3 29 9d be 42 5b c2 3e ac 25 f9 bd
       -0.16604629 -0.30695972 0.3796025 -0.121653885
000080 fc 15 02 3e 3b 89 09 bf a0 91 82 3c 26 f7 a6 3e
       0.12703699 -0.5372502 0.01593858 0.32610434
000090 11 f8 a0 3e 8a 51 82 bd 47 b8 cc be f4 44 e8 be
       0.3143926 -0.063632086 -0.39984342 -0.45365107
0000a0 a2 fd 4f 3e 5f db 09 3f f5 37 f5 be 40 ff 8a 3b
       0.20311597 0.5385036 -0.47894254 0.004241854
0000b0 e9 0c ef 3e 6d 4b 07 3f 09 b4 00 be 03 03 15 bf
       0.46689537 0.52849466 -0.12568678 -0.5820772
0000c0 38 76 80 3e 6c 71 9a 3d f0 f6 1a bf bb 18 18 bf
       0.25090194 0.07541165 -0.60533047 -0.59412736
0000d0 b0 5e ba bc 15 5f 36 3f a8 14 de be 81 8b 0d be
       -0.022750229 0.71238834 -0.43375134 -0.13822748
0000e0 9b 23 96 3e ce de 10 3f d8 86 76 3d 39 c1 08 bf
       0.2932404 0.5658997 0.06018719 -0.53419834
0000f0 c6 23 50 3f 08 39 4b be a5 88 96 be d9 15 86 be
       0.81304586 -0.19845974 -0.29401127 -0.26188543
000100 c0 7f e2 3d 7f 1a 38 3f 3e d7 c3 be 98 61 6e 3e
       0.11059523 0.7191543 -0.38250154 0.23279417
000110 76 9b 3b 3f 10 2e 18 3f ec ab 0c 3e fa 4a 47 bd
       0.7328409 0.59445286 0.13737458 -0.048655488
000120 60 cd 35 3f 28 cd c0 3d 75 5b f1 be b6 7f 96 bd
       0.710165 0.094141304 -0.4714009 -0.07348578
000130 06 0c 10 3e ab 65 1d 3f 76 ac 2e bf ca fe 84 3e
       0.14067087 0.6148326 -0.68231905 0.2597564
000140 1b 02 01 3f 1a ef 54 3e 61 37 6e be 6a fc 1c bf
       0.5039384 0.20794335 -0.23263313 -0.61322653
000150 3a 17 17 3f 34 ee 87 3d a8 05 1d bf de df 16 bf
       0.59019816 0.066372305 -0.61336756 -0.58935344
000160 3e d7 57 3e e5 a5 a6 3e a1 af 0d bf 70 76 46 3e
       0.21078202 0.32548442 -0.55346113 0.19381118
000170 3e 80 38 3f 2e 36 82 3e d1 82 3f be 30 64 f9 be
       0.7207068 0.2543196 -0.18702246 -0.4870925

features.layers.0.logic.2.layer.0.mlp.0.bias f4 [8]
000000 25 cb 8c be bf 8b b2 3e b8 ff 54 3c 52 94 1e 3f
       -0.27498737 0.34872243 0.013000421 0.6194507
000010 4d ae 48 3f 58 06 ac bd 95 40 fc 3e df 80 36 3f
       0.7839096 -0.083996475 0.49268022 0.7129039

features.layers.1.logic.0.layer.0.mlp.0.weight f4 [8, 16]
000000 da 14 1a be 7c c0 21 3e f0 af 93 bd ba 64 16 3e
       -0.15047017 0.15796083 -0.07211292 0.14686862
000010 cc dd 29 be 04 08 d2 bd 56 02 1d 3e 34 ce 11 3e
       -0.16588515 -0.10255435 0.15332922 0.14238816
000020 e0 9d 99 3c 02 5b 02 3e e6 57 21 be fc 68 14 3e
       0.018752038 0.12730029 -0.15756187 0.14493173
000030 e4 2a e3 3d 7a 0c 79 be 5c c9 68 be 66 31 1a be
       0.11092165 -0.24321166 -0.22733063 -0.15057907
000040 a0 28 9d bc a4 e1 2a 3e f2 5d 34 3e 5c 57 8c bd
       -0.01918441 0.16687638 0.17613962 -0.068526
000050 50 91 66 be 88 71 08 bd b8 70 9d bd b6 43 11 3e
       -0.2251637 -0.033311397 -0.07687515 0.14185986
000060 24 2a e9 3d 60 0e 6b be c0 6e 55 bc 94 8c 6d 3e
       0.11384991 -0.22954702 -0.013026893 0.23198158
000070 fc 6a c5 3d 1e 49 68 be a0 93 72 3c d0 34 0c 3d
       0.09639546 -0.22684142 0.014805704 0.034230053
000080 b0 78 7d be 6a bb 66 be 8c 06 3c 3e 20 90 28 bd
       -0.2475307 -0.2253243 0.18361872 -0.041153073
000090 38 42 dd bd 68 a7 30 3d d0 af b9 3c 98 cd d4 3d
       -0.10803646 0.0431284 0.022666842 0.103907764
0000a0 a4 9b 92 3d a0 22 8a 3d 80 b4 73 bd 74 99 0e 3e
       0.07158592 0.067448854 -0.05949831 0.13925725
0000b0 24 ba 76 be f6 00 42 be 5a 53 0a 3e 00 b1 d8 3d
       -0.24094445 -0.18945679 0.13508359 0.10580635
0000c0 b6 7f 41 be 20 50 7c be 86 2c 2f 3e b4 ae fc bd
       -0.18896374 -0.2463994 0.17106828 -0.123380095
0000d0 c6 27 1a 3e 06 05 24 be e8 69 61 be 50 56 68 bd
       0.15054235 -0.16017541 -0.22013056 -0.05672294
0000e0 04 2c 91 bd 86 0e 61 be 7e 63 69 3e dc ee a3 bd
       -0.070884734 -0.21978197 0.2279186 -0.08004543
0000f0 58 84 18 bd 00 d7 34 bb 88 e6 65 3e 26 01 59 be
       -0.037235588 -0.002759397 0.22451222 -0.21191844
000100 b4 c4 dd 3d 86 b8 19 3e a0 f4 86 bd 20 48 cd bd
       0.10828534 0.15011796 -0.06589627 -0.100235224
000110 60 b1 1b bc 44 90 a8 bd d4 69 3f be 98 67 b7 bd
       -0.009502739 -0.082306415 -0.18692714 -0.08955306
000120 ee 7b 42 3e 60 c5 ba 3d 74 cb 09 3e 24 23 eb 3d
       0.18992588 0.091196775 0.13456517 0.11481312
000130 d0 5c fd bd 78 0a 5a 3e 5c 70 12 3e 00 43 8d 3d
       -0.12371218 0.21293056 0.14300674 0.06897545
000140 54 c1 8b bd d0 c9 fd 3c f8 14 38 3d ee 1f 1b be
       -0.06823984 0.03098002 0.044941872 -0.15148899
000150 5e 88 09 3e 40 fa 3a 3c 64 b8 24 3e 70 2f be bc
       0.13430926 0.011412203 0.16085964 -0.02321598
000160 ae bf 44 be e0 cd d4 3d 1a e8 7e 3e 00 ba 00 ba
       -0.19213745 0.1039083 0.24893227 -0.00049105287
000170 3e e3 2e be 4c ae b2 3d d0 3b a2 bd 58 a9 32 be
       -0.17078874 0.08724651 -0.079215646 -0.17447412
000180 44 da a2 bd e0 46 20 bd 00 cc 72 3d f6 46 03 be
       -0.07951787 -0.03913009 0.05927658 -0.12820038
000190 f0 c0 61 bd 80 9a 73 be 08 60 16 3e 78 29 1c 3e
       -0.05511564 -0.23789406 0.1468507 0.15250194
0001a0 00 6e ff 3a 1c 57 cf 3d 9c a0 5c 3e 40 f5 d9 3b
       0.0019487739 0.10124037 0.21545643 0.0066515505
0001b0 30 8c 75 3d 50 26 17 bd d4 89 7a be d6 81 2e 3e
       0.059948146 -0.036901772 -0.2446664 0.17041716
0001c0 94 90 76 3e c0 66 8a 3c 20 c7 8b bc 28 33 5b 3e
       0.2407859 0.016894698 -0.017062724 0.21406233
0001d0 e2 53 35 3e e0 15 43 be f4 0a f8 bd c8 d0 27 be
       0.1770778 -0.19051313 -0.12111464 -0.16388237
0001e0 f8 9f 1e bd 20 1c 2c 3d a0 32 30 3d 30 ef 74 be
       -0.038726777 0.04201901 0.04301703 -0.23919368
0001f0 80 35 8e bb 80 8c 76 3d 34 de 71 be f0 7f bf bd
       -0.004339874 0.060192585 -0.2361992 -0.09350574

features.layers.1.logic.0.layer.0.mlp.0.bias f4 [8]
000000 80 51 83 bb 00 da 15 be 6c c7 eb 3d d4 ee 57 be
       -0.0040075183 -0.14633942 0.11512646 -0.210872
000010 7a 14 49 be 78 39 6a bd 70 d7 a3 3d e0 e8 b7 3d
       -0.19636717 -0.057183713 0.08000076 0.08979964

features.layers.1.logic.1.layer.0.mlp.0.weight f4 [8, 36]
000000 a6 1a 14 3f 21 41 97 3e c6 b0 dd 3e 0b 00 19 3e
       0.5785316 0.29541877 0.4329893 0.14941423
000010 c0 f4 e6 3e 53 f2 d5 3e 4a 28 f8 bd c0 8f 0c bf
       0.45108604 0.4178644 -0.121170595 -0.54906845
000020 30 ec c6 be c7 22 8f be bb fa 18 3e c1 3a 17 3e
       -0.38852072 -0.2795622 0.14939396 0.14768507
000030 6e b8 aa 3d 75 d4 e8 3e 31 af b9 3e 7f 15 04 3f
       0.083359584 0.45474592 0.36266473 0.515953
000040 be 56 9d 3d 36 6b 4f bd dd cd 87 be e4 c4 11 bf
       0.076825604 -0.050639354 -0.2652425 -0.56941056
000050 20 fa 4b 3e be cf 28 3f cf 28 95 be 5f 14 df be
       0.19919634 0.6594199 -0.29132697 -0.4357023
000060 b0 9a 18 3f 43 34 04 3f a2 0c 5a be 80 ef f9 be
       0.59611034 0.51642245 -0.21293882 -0.48815536
000070 cf 3a 3c be d8 70 26 bf e3 6d 02 be 9a 00 02 3c
       -0.18381809 -0.65015936 -0.12737231 0.007934714
000080 ba 56 1d be 35 73 d5 be e1 f6 f9 be cf 93 b8 be
       -0.15365115 -0.41689458 -0.48821166 -0.3605027
000090 b0 64 d3 be 6b 2d 0c bf 8d 66 90 be e6 7b 8b 3e
       -0.41287756 -0.547568 -0.2820324 0.27242965
0000a0 7f 1f ce be 6b 7e e8 be f2 da 99 3e 26 3a 24 3f
       -0.40258405 -0.4540895 0.30049855 0.6415123
0000b0 18 d9 0e 3e a7 ae 6a 3e 0e a9 a7 3d a0 53 c1 bc
       0.13950002 0.22918187 0.081865415 -0.023599446
0000c0 c3 c6 c7 be 39 02 08 bf c7 d0 de be b0 e7 2c be
       -0.3901883 -0.5312839 -0.4351866 -0.16885257
0000d0 12 5d d4 3d 18 81 a9 3d 12 3f 00 3e a0 a9 02 3f
       0.10369314 0.08276576 0.1252406 0.5104008
0000e0 f7 fa 8d be b3 88 18 bf 24 e5 ba 3e 21 78 07 3e
       -0.27730533 -0.59583586 0.36502945 0.1322942
0000f0 08 4c 85 3b 51 62 a7 be a4 15 c5 3e 3e b7 eb 3e
       0.0040679015 -0.32692197 0.38493073 0.4603824
000100 58 33 89 3e 5d 14 51 3e 3f 29 69 3e ab f8 7e 3e
       0.26796985 0.20417924 0.2276964 0.24899547
000110 2e 75 e8 3e 94 c7 06 3f 5f 73 f6 3e 0f 32 c6 3e
       0.454019 0.5264828 0.48134896 0.38710067
000120 ec 35 0a 3f 0e 90 8d 3e be bc 97 3e 6c 63 30 3e
       0.5398853 0.27648968 0.29636186 0.17225426
000130 bb b7 ba 3e 3c 41 0c 3f 87 dd ad be c8 33 e7 be
       0.364683 0.5478704 -0.33958074 -0.45156693
000140 ef 1b b0 be 34 20 65 be 00 3f 1c bb a2 f3 fe 3d
       -0.34396312 -0.22375566 -0.0023841262 0.12448813
000150 77 c4 af 3e f4 58 20 3f 8f f2 ef 3e 3b ae 52 3e
       0.34329578 0.6263573 0.46864745 0.20574276
000160 b8 e9 8b bd 3b d2 93 bd a5 1a d4 be be c9 2a bf
       -0.06831688 -0.07217833 -0.41426578 -0.66714084
000170 a8 a0 90 3e 98 81 43 3f 18 20 79 be c3 c8 d9 be
       0.2824757 0.7636962 -0.24328649 -0.42535982
000180 23 f9 de 3e 93 51 fe 3e 41 84 90 be 21 99 25 bf
       0.4354945 0.4967161 -0.28225902 -0.6468678
000190 06 5c 50 be 33 45 fe be c0 b8 a2 bd b0 0d 91 be
       -0.20347604 -0.4966217 -0.079453945 -0.28330755
0001a0 36 9c a7 be bd 8a a3 be 44 1a 6d be 4f 99 b7 be
       -0.32736367 -0.31941786 -0.23154551 -0.35859153
0001b0 fe a7 99 3e 26 9b d1 3e 72 24 a9 3e 65 eb 6a 3d
       0.3001098 0.4093868 0.33035618 0.057353396
0001c0 61 34 a6 3e 35 a2 00 3f 95 31 7d be 90 89 0e bf
       0.32461837 0.5024751 -0.24725945 -0.55678654
0001d0 23 82 cf be fd fb 3c be f8 9a 29 be f0 6a 3b bc
       -0.40528974 -0.18455501 -0.16563022 -0.01143907
0001e0 a1 5b 65 3e 16 28 15 3f aa 9f 23 3f 97 55 b3 3e
       0.22398235 0.5826429 0.63915503 0.35026237
0001f0 21 d1 23 3e 4e d5 d0 bd 56 48 42 be 97 58 1f bf
       0.15997745 -0.10196935 -0.18972906 -0.6224455
000200 4c 0e 3a 3e 86 95 25 3f 67 a1 23 be 40 a4 7b be
       0.18169516 0.6468128 -0.15979539 -0.24574375
000210 67 bc d3 3e 66 85 bd 3e cc b9 3c be b3 5f 21 bf
       0.41354677 0.37015837 -0.18430251 -0.6303665
000220 69 23 da be cb 00 1e bf c6 3a 8b 3d a3 7a 98 3d
       -0.4260514 -0.6171996 0.067983195 0.07445266
000230 f0 de ab be 98 18 6d be 72 ec fe be 42 9a 5b be
       -0.33568525 -0.23153913 -0.49789768 -0.21445563
000240 54 c7 f1 be 9f 86 93 be 21 cf d7 be fb 7d 51 3d
       -0.47222388 -0.28813645 -0.42150214 0.051145535
000250 be 75 72 be a3 a0 21 bf 7c c2 ea 3e d2 44 27 3f
       -0.23677728 -0.6313574 0.45851505 0.65339386
000260 a7 c6 65 3e 6b 55 84 3e f6 69 fd bd 63 b4 cd bd
       0.22439061 0.2584642 -0.12373726 -0.10044172
000270 f8 da b8 be 2b 3c e9 be 3f 21 65 be eb b0 d4 be
       -0.3610456 -0.45553717 -0.22375964 -0.41541228
000280 20 3a bb 3c f6 b6 96 bd c8 25 37 3e fb 9a 17 3f
       0.022854865 -0.07359116 0.17885506 0.59220856
000290 e8 c1 2a be 6c eb 07 bf 4d d3 32 3e ed 4d 2f 3e
       -0.16675532 -0.530936 0.17463417 0.1711957
0002a0 1e 03 42 be 7b f8 5f be 62 2b 53 3e 4f 10 5f 3e
       -0.18946502 -0.21872132 0.20622018 0.21783565
0002b0 9e cb 6c 3e f3 b4 09 3f fd 00 fc 3d 4c 52 ac 3e
       0.23124549 0.5379173 0.12304876 0.33656538
0002c0 69 da a2 3e 58 41 d7 3e 64 0e ff 3e d6 6e f4 3e
       0.3180726 0.4204204 0.49815667 0.4774081
0002d0 7d 9b dc 3e 7d 89 f8 3e 69 c6 0a 3f fd bc 95 3c
       0.43087378 0.48542395 0.54209 0.018278593
0002e0 1b 71 e9 3e 0c e1 d5 3e d1 d8 ab be 3c 75 37 bf
       0.45594105 0.4177326 -0.33563855 -0.7166326
0002f0 20 ce d4 be db 01 93 be c2 26 fa 3d fa 0f 9b 3d
       -0.4156351 -0.28712353 0.12214424 0.07571407
000300 dd 51 45 3e a4 c2 c6 3e a1 e7 ec 3e e2 e8 e4 3e
       0.1926951 0.38820374 0.4627047 0.44708925
000310 1f 43 04 3e be d7 89 3d 57 a2 54 be c7 4c 1e bf
       0.1291623 0.06730603 -0.20765053 -0.618359
000320 dc 3c 56 3e 66 d4 0e 3f 9b af 8b bd 05 f5 49 be
       0.20921654 0.55792844 -0.068206035 -0.19722374
000330 49 0d c9 3e 84 cb e8 3e 38 3e ab be 44 f2 22 bf
       0.39267948 0.4546777 -0.33445907 -0.6365092
000340 bd 01 01 be 25 d9 f9 be 7d d4 88 3d 6d ea b2 be
       -0.1259832 -0.4879848 0.06681154 -0.34944478
000350 6c 87 c0 be 26 50 b8 be 99 06 38 be a8 34 f8 be
       -0.3760332 -0.35998648 -0.17971267 -0.48477674
000360 a5 4b f7 3e da 28 0e 3f cb cf aa 3e 8a 8d 1e 3e
       0.482999 0.55531085 0.33361658 0.1548368
000370 b4 7b 17 3e a7 7c dd 3e 90 ae 65 be 7e f5 f5 be
       0.14793283 0.43259165 -0.22429872 -0.48038858
000380 55 4c b4 be 94 1b 6c be 5a 2d b7 3d e6 b7 a7 3d
       -0.35214487 -0.23057395 0.08944197 0.08189373
000390 73 0d 99 3e a0 13 22 3f 29 cf aa 3e 5d 53 f1 3e
       0.29893073 0.63311195 0.33361176 0.47133914
0003a0 80 e1 a6 bb 14 b2 28 bd f7 d1 aa be a2 4f 2b bf
       -0.0050927997 -0.041185454 -0.33363315 -0.66918385
0003b0 8e 76 b3 3e d3 b6 33 3f 38 a2 ad be 43 a5 93 be
       0.35051388 0.7020084 -0.33912826 -0.28837022
0003c0 48 52 e6 3e 16 a1 29 3e ab d2 67 be 89 0e 03 bf
       0.4498465 0.16565356 -0.22638957 -0.51194054
0003d0 be a4 96 be 65 71 e2 be e7 ea 45 3d 12 75 fb bd
       -0.29422563 -0.44227138 0.048319723 -0.12278189
0003e0 c5 f2 a2 be c7 dd a2 be 96 ab ba be e8 20 88 be
       -0.31825843 -0.31809828 -0.36459035 -0.26587605
0003f0 dd 9f ab 3e 15 5e 00 3f 45 8b eb 3e 4f 84 5c 3e
       0.33520404 0.5014356 0.46004692 0.21534847

features.layers.1.logic.1.layer.0.mlp.0.bias f4 [8]
000000 a5 b4 ad 3e 04 4d 4e bd 08 d7 57 3e e3 aa 6e 3e
       0.33926883 -0.050366417 0.21078122 0.23307376
000010 ee 9c bf 3c 1e 7a 1a 3e 7d 21 8c 3e e3 b8 95 3e
       0.02339026 0.15085647 0.273693 0.2924262

features.layers.1.logic.2.layer.0.mlp.0.weight f4 [8, 44]
000000 96 4e 8b 3e ad 09 39 3e 7f 77 67 3e 8a c5 d6 be
       0.27208394 0.18070097 0.22604178 -0.41947585
000010 46 9b 2a 3e 32 2b 26 3f e1 3b a9 be c0 ff 3b bf
       0.16660795 0.6490966 -0.33053496 -0.7343712
000020 c7 85 9f be 17 a6 b2 bd fb 0a db 3e 16 66 56 3e
       -0.31156752 -0.087230854 0.42781815 0.2093738
000030 c4 20 08 be 7e 37 9f be 09 ec 60 3e e3 8c dd be
       -0.13293749 -0.31097025 0.2196504 -0.4327155
000040 4c c5 10 be 90 fc 1e bf 71 fa 1f bf 61 cd 3c bf
       -0.14137763 -0.6210413 -0.6249152 -0.73750883
000050 30 31 0a bf 0e df 3a bf 71 35 fb be 17 97 11 bf
       -0.53981304 -0.72996604 -0.4906421 -0.5687117
000060 5a de e5 be 77 c2 a5 be 69 a3 92 be 67 89 12 bf
       -0.44896203 -0.32374927 -0.28640297 -0.5724091
000070 9a d8 9b 3e 58 4a c6 3e 49 c6 83 3e 18 c4 c3 bc
       0.3043869 0.38728595 0.25737217 -0.023897216
000080 b1 bb 10 bf 94 2e b9 be 7a 5f 0c 3e 3f 83 7a 3e
       -0.56536394 -0.3616835 0.13708296 0.24464129
000090 9f 99 2f bf bf f5 ca 3d eb 82 9b be 1c bb 98 3d
       -0.6859378 0.099101536 -0.3037332 0.07457563
0000a0 29 fc a2 3e ac f4 72 3e 74 b3 84 3e 5d 93 c3 3e
       0.31833008 0.23726147 0.25918162 0.38198367
0000b0 99 53 b9 3e cd 31 c6 3e bf 95 83 3e ce 78 83 be
       0.36196592 0.3870987 0.25700185 -0.25678104
0000c0 07 b8 bf 3e 88 30 1b 3f 92 42 da be 71 5f 0e bf
       0.3744509 0.6062093 -0.42628914 -0.5561438
0000d0 e8 d4 01 bf 60 cf e6 bb 59 04 7d 3e a1 65 9a 3e
       -0.50715494 -0.007043764 0.2470869 0.30155662
0000e0 17 6c 02 be 64 1f 94 be a6 60 bf 3b c0 80 2d bf
       -0.12736546 -0.289302 0.005840379 -0.6777458
0000f0 b3 04 91 be 02 41 25 bf 0a 09 ab be 57 c6 34 bf
       -0.28323898 -0.6455232 -0.33405334 -0.7061514
000100 bb 4f 01 bf 3c 2e 15 bf 5f 54 19 bf ed 1b 24 bf
       -0.50512284 -0.58273673 -0.59894365 -0.6410511
000110 1b 02 31 bf d2 06 ae bd 8d 5d 97 be d8 f8 3f bf
       -0.6914384 -0.084973946 -0.2956356 -0.7498908
000120 a8 50 44 3d 4b aa 03 3f 5d 6a 72 3e d8 bf b3 3d
       0.047928482 0.5143172 0.23673387 0.08776826
000130 e9 64 f0 be 49 5b cf be 2c 7a df 3d da af c2 3d
       -0.46951988 -0.40499333 0.10911974 0.09506197
000140 3b 39 2c bf 51 76 cc 3d e3 08 ae be b9 7e 6a 3d
       -0.67274827 0.099835046 -0.33991155 0.05724976
000150 4a f5 a5 3e 0a 94 74 3e bd 48 9a 3e af d4 a7 3e
       0.32413703 0.23884597 0.3013362 0.32779452
000160 83 e7 6f be 03 bc d4 be 2a 75 41 be ac 7b 79 3e
       -0.23428158 -0.41549692 -0.18892351 0.24363583
000170 19 ed 8a be 8d 53 ef be ff fc df 3e d7 2e 29 3f
       -0.27134016 -0.46743432 0.43747708 0.66087097
000180 d3 85 d2 3e e8 f7 5e bd 23 6d 86 be 42 a2 4a be
       0.41117725 -0.05443564 -0.2625514 -0.19788459
000190 7c 48 bd bd 9a 91 ea 3e 80 e8 fa bd e3 56 23 3f
       -0.09242341 0.4581421 -0.12251377 0.63804454
0001a0 07 53 3e 3e cb c3 f7 3e 4a 7d 05 3f 31 ec 07 3f
       0.1858636 0.48391566 0.521443 0.53094774
0001b0 6c 4c 34 3f e8 56 1e 3f 1c 0d d2 3e 6a a5 17 3f
       0.7042911 0.6185136 0.41025627 0.59236777
0001c0 8b 6d df 3e 0d 46 62 3e ed d2 b3 3e f7 4c 22 3f
       0.43638262 0.22097035 0.3512186 0.6339869
0001d0 35 99 b6 be dd 49 0e bf a0 c4 c6 be 30 69 ca 3d
       -0.35663763 -0.55581456 -0.38821888 0.09883344
0001e0 68 fa 0d 3f 9e 0f bf 3e ba cd 01 be cc 1e 2c be
       0.55460215 0.37316602 -0.12676135 -0.16808623
0001f0 77 6b 2e 3f 13 78 79 bd 76 ce c7 3e 0a d0 ff bd
       0.6813273 -0.060905527 0.39024705 -0.12490852
000200 61 17 a8 be 05 ae 2a bd 74 38 4d be 1c 37 1f be
       -0.32830337 -0.041669864 -0.20041066 -0.15548366
000210 07 04 27 be 49 1f 30 be 5f 5a 95 be 39 4f a3 3e
       -0.1631013 -0.17199434 -0.2917051 0.3189638
000220 89 c1 57 be 35 b2 e1 be 77 82 eb 3e bc 7d 2f 3f
       -0.21069922 -0.44081274 0.45997974 0.6855123
000230 df be 0b 3f 78 2c bd 3d 4f 0f e9 be 49 f2 52 be
       0.5458812 0.09236997 -0.45519492 -0.20600237
000240 1b 0e f8 bd 84 72 c1 3e 94 3b 55 bd 18 56 2e 3f
       -0.121120654 0.3778268 -0.05205877 0.6810012
000250 a5 8b 85 3d 41 ed 4b 3f 82 b8 12 3f e3 64 2b 3f
       0.06520776 0.79658896 0.57312787 0.66950816
000260 a8 71 3d 3f b4 f1 17 3f 70 88 16 3f dc d6 ca 3e
       0.7400155 0.59353185 0.5880194 0.3961705
000270 20 7f 1f 3f fa 35 88 3e fb cd 9d 3e 2a b3 18 3f
       0.6230335 0.2660368 0.30821213 0.5964838
000280 f9 1d f0 be 7c 9f ff be 7a 00 a3 be 0f ea 85 bd
       -0.46897867 -0.49926364 -0.318363 -0.06538784
000290 19 c4 07 3f 88 d3 c8 3e 48 4b 81 3d 82 cf a7 be
       0.53033596 0.39223886 0.06313187 -0.32775503
0002a0 4f e8 d9 3e f4 6b ec bd 1f 23 fb 3e 2f 49 c5 be
       0.4256005 -0.11544028 0.49050233 -0.38532397
0002b0 4f 97 38 be 35 ea ec bd 6a 94 10 be db 55 99 be
       -0.1802647 -0.11568109 -0.14119115 -0.29948315
0002c0 42 4b 3e 3e 30 02 9e 3e 6d 0d a6 3e cd ae bd be
       0.18583396 0.30861044 0.32432118 -0.37047425
0002d0 60 3a 4c 3e 88 0b e3 3e b0 6c e0 be 3d 04 27 bf
       0.19944143 0.44344735 -0.43832922 -0.6524084
0002e0 ab c5 90 be 90 6d d6 3d 7f fa d7 3e 9e bd ab 3e
       -0.2827581 0.10470116 0.421833 0.33543104
0002f0 10 a1 a2 bc 79 13 c3 be ee 67 6a 3e a6 11 f3 be
       -0.019852191 -0.38100794 0.22891209 -0.47474402
000300 00 12 a0 bd 73 d7 00 bf b5 a3 18 bf 91 31 2a bf
       -0.07815933 -0.5032875 -0.596248 -0.6648188
000310 32 9a 2a bf 76 e1 2e bf 83 99 e9 be 3e d8 1b bf
       -0.66641533 -0.68312776 -0.45624933 -0.60876834
000320 69 e3 f0 be c5 90 57 be 85 50 ab be 17 ac 23 bf
       -0.470485 -0.21051319 -0.3345987 -0.63934463
000330 a6 6d 6a 3e 28 bd ce 3e b0 6f 95 3e 4c 20 00 3e
       0.2289339 0.4037869 0.29186773 0.1251232
000340 91 9f bf be 42 84 af be c0 f4 7e 3d 44 b1 9a 3e
       -0.37426427 -0.34280592 0.06224513 0.30213368
000350 57 2b 0c bf d0 72 3c 3d 74 33 15 bf e8 9a a6 3e
       -0.5475363 0.04600793 -0.58281636 0.3254006
000360 5e d8 1d 3e 35 e7 a0 3d 0f fe c5 3e 30 5a 2b 3e
       0.15414569 0.07856599 0.38670394 0.16733623
000370 7c 78 c3 be e9 e9 46 be 1c 71 80 bd 03 7b af 3e
       -0.3817786 -0.19425167 -0.06271574 0.34273538
000380 e8 98 c1 be 16 44 29 bf d8 59 fa 3e 71 c8 1a 3f
       -0.3781197 -0.66119516 0.4889667 0.604621
000390 31 1c e6 3e b4 d9 13 3d 34 de 16 be b2 7c f2 bd
       0.44943383 0.03609629 -0.14733201 -0.1184019
0003a0 40 4a a3 3c 56 29 e3 3e f9 cf 97 3c 0f 64 0d 3f
       0.019932866 0.44367474 0.018531786 0.552308
0003b0 a8 e7 26 3e 0c 7e d5 3e 97 33 c0 3e 9d 99 1c 3f
       0.16299307 0.4169773 0.3753936 0.61171895
0003c0 92 d8 f8 3e 26 93 37 3f 8e e7 1b 3f df 46 fb 3e
       0.4860273 0.71708906 0.609002 0.49077508
0003d0 69 b2 06 3f 09 db 33 3e 94 8e 00 3f 77 ba 29 3f
       0.5261598 0.17564024 0.50217557 0.6630015
0003e0 74 8a 7a be 6e 6f 0f bf 4a 7d 5d be 68 1e e4 3c
       -0.24466878 -0.56029403 -0.21629825 0.02784653
0003f0 d7 07 f9 3e 00 91 82 3e d8 35 89 3d 70 4e a9 be
       0.48638794 0.2550125 0.06699723 -0.33067656

features.layers.1.logic.2.layer.0.mlp.0.bias f4 [8]
000000 4f ae db be 32 66 ab be e6 91 b2 3e 24 af b2 3e
       -0.42906424 -0.33476406 0.34876937 0.34899247
000010 81 00 88 be 0f b6 02 3f 94 62 fc bd 6e ce 59 bd
       -0.26562884 0.5105905 -0.1232349 -0.053175382

features.layers.2.logic.0.layer.0.mlp.0.weight f4 [8, 40]
000000 c0 65 ea bc ce 61 ae bd 00 52 4f bb ce 07 cf bd
       -0.028612971 -0.085147485 -0.003163457 -0.101089105
000010 6f ab 99 bd 2e 02 0d be a1 68 14 3e c0 68 31 bb
       -0.075034015 -0.13770363 0.14493038 -0.0027070493
000020 0e a8 fe 3d 00 d3 b0 bb b3 d1 20 3e f2 34 f2 3d
       0.12434398 -0.005396247 0.15704994 0.11826505
000030 78 97 71 3d c6 24 5a bd cd 51 88 bd ea f7 3c bd
       0.058982342 -0.053257726 -0.06656227 -0.046134867
000040 cc 41 74 3d 30 fe 1a 3c 90 5c 8c 3d 53 25 0f 3e
       0.05963306 0.009460017 0.068535924 0.13979082
000050 60 6b b1 3b 87 93 1c 3e de 6d 3e bd 32 03 63 bd
       0.0054144114 0.15290652 -0.046491496 -0.05542297
000060 8c 9c b8 bd 98 41 ef bd 00 a3 23 ba ae f3 14 be
       -0.09014234 -0.11682433 -0.00062422454 -0.14546081
000070 00 1a c7 bc 35 93 1f 3e 3c 44 43 3d 00 a1 78 bb
       -0.02430439 0.15583499 0.047672495 -0.003793776
000080 82 6d 19 bd 78 80 59 3d fc 22 64 3d e6 e5 a3 3d
       -0.03745795 0.053101033 0.055697426 0.08002834
000090 7e 7a 8b bd 7c cb fb bd 0f 08 21 3e d6 b0 bf bd
       -0.06810473 -0.12294671 0.1572573 -0.09359901
0000a0 b0 48 cd bd 28 9d 29 3d fe 1b fd 3d 61 d0 1c be
       -0.1002363 0.04140964 0.12358855 -0.15313865
0000b0 8a de 81 3d 2a 2d 84 3d 00 ae a7 bd e0 a9 ee 3b
       0.06341274 0.06453927 -0.08187485 0.0072834343
0000c0 40 51 f0 bc 45 6e a0 bd a8 a1 ee bc 7e 08 1e be
       -0.029335618 -0.07833532 -0.029129818 -0.15432927
0000d0 07 77 17 3e e9 64 b0 bd fb ec b7 bd f0 27 aa bc
       0.14791499 -0.08612997 -0.08980747 -0.020770997
0000e0 31 e7 06 3e f0 de 0a 3d c6 90 c0 3d a0 4b 85 3c
       0.1317413 0.033904016 0.09402613 0.016271412
0000f0 9c 6c b5 bd 01 92 17 3e cb d0 dd bd f0 63 b6 3c
       -0.08858606 0.1480179 -0.1083084 0.02226445
000100 2d 9b 11 be b0 37 5a 3d 97 58 0a be 60 d1 96 bb
       -0.14219351 0.053275764 -0.13510357 -0.004602596
000110 8c 77 b5 3d 90 ec 96 3d ea 04 c8 3d 0e ce 74 bd
       0.088606924 0.073693395 0.09766562 -0.05976682
000120 3c c6 27 bd 30 79 63 3c 5a 1c c8 3d e0 8b a6 3d
       -0.040960535 0.013883874 0.09771033 0.08132148
000130 68 cc da bd 8e e5 e1 3d 66 52 e1 3d 5b 49 03 be
       -0.10683519 0.11030112 0.110020444 -0.12820952
000140 04 a3 89 3d ca fb 98 bd 7e a4 a5 bd 40 b2 07 bc
       0.06720546 -0.074699 -0.08088015 -0.008282244
000150 17 88 1a be 6f 31 08 be a4 2c 5e 3d 78 a7 ec 3c
       -0.15090977 -0.13300107 0.05424179 0.02888845
000160 ee f2 d1 3d 20 5f cc 3c b8 42 ff 3c 50 3f db bd
       0.10251413 0.024947703 0.031159744 -0.10705435
000170 fa 9b 2a bd 9c fa e4 bd 6e 3d be 3d 1d ec 9c bd
       -0.041652657 -0.111806124 0.092890605 -0.076622225
000180 b8 55 9b bc 19 81 19 3e dc 01 a9 bd 8e be ce bd
       -0.018961772 0.14990653 -0.08252308 -0.10094939
000190 f4 99 87 3d 40 be 36 bc a3 6e c2 bd c3 da 1f 3e
       0.06621161 -0.011153758 -0.094937585 0.15610795
0001a0 0a 87 d4 3d be 95 f5 3d fa 45 b4 3d fa 59 16 be
       0.10377319 0.11991452 0.088024095 -0.14682761
0001b0 39 b8 01 be 00 09 4a ba 86 03 db 3d b0 82 bb 3c
       -0.12667932 -0.00077070296 0.106940314 0.022889465
0001c0 e8 0f e9 bd fd b2 ab bd 32 05 f4 3d 8e 04 c5 3d
       -0.11379987 -0.08383749 0.119150534 0.09620009
0001d0 a0 ee 2c 3c 50 60 d6 3c 7c 3a 8e 3d 8a e7 98 3d
       0.0105549395 0.026168972 0.06944749 0.074660376
0001e0 98 58 99 bc 20 28 76 3c 3d 6e 96 bd 78 08 cc bd
       -0.018719003 0.015024215 -0.07345245 -0.09962553
0001f0 60 8d f4 3b 6e 45 9c 3d 40 82 81 3d 80 a9 b8 3a
       0.0074631423 0.0763043 0.06323671 0.0014088601
000200 38 12 40 3d f0 96 62 bc 64 95 1d bd ad 82 fc bd
       0.046892375 -0.013829932 -0.038472548 -0.12329612
000210 8b 31 1c be f4 2c 20 3d 88 8c a7 3d 87 74 05 be
       -0.15253274 0.03910537 0.08181101 -0.13032733
000220 00 ef 1a 3c 4e 42 9d 3d f6 e0 fd 3d d0 d7 0f bd
       0.009456396 0.07678662 0.123964235 -0.035117924
000230 c4 e5 2c 3d fd a1 18 3e 50 4d 1d 3c 70 10 c5 bd
       0.04221131 0.14905544 0.009600952 -0.09622276
000240 c0 36 12 be 9d 3c b5 bd 6b 3a 1d be 94 7f 44 bd
       -0.14278698 -0.08849452 -0.15354316 -0.04797323
000250 40 b8 08 bc 5d 83 be bd 16 a0 b3 3d a0 86 87 3d
       -0.00834471 -0.09302399 0.08770768 0.066174746
000260 74 39 b7 bd c4 cf 89 3d 68 7e 94 3c 9f f9 b7 bd
       -0.08946505 0.06729081 0.018126681 -0.08983158
000270 eb 50 0f be 17 3b 1e be 08 33 09 be 58 5d 9b 3c
       -0.13995712 -0.15452228 -0.13398373 0.018965408
000280 a5 78 06 be 14 52 1e 3d 46 8a 5b bd 8e 90 c6 3d
       -0.1313196 0.038652495 -0.053598665 0.0969554
000290 89 30 b5 bd 02 63 f0 bd f7 12 14 3e 4c 4b da bd
       -0.08847148 -0.11737634 0.1446036 -0.10658893
0002a0 45 42 ac bd 78 ea 08 be 38 92 91 3d 32 8d f5 3d
       -0.084110774 -0.13370693 0.07107967 0.119898215
0002b0 00 9d 1b ba e0 b4 d1 bb 2c 28 9c bd 09 70 f5 bd
       -0.00059361756 -0.006399736 -0.0762485 -0.1198426
0002c0 d2 6e b5 3d 16 09 ec bd 23 34 1b be 89 7d 1e be
       0.08859028 -0.115251705 -0.15156607 -0.15477575
0002d0 eb 13 18 be 2a e0 bb 3d 80 0f df bc fe 9a ff 3d
       -0.14851348 0.09173615 -0.02722907 0.12480734
0002e0 54 ae 04 3d 60 0c 8a bb e4 53 70 3d 93 07 17 3e
       0.032392815 -0.004212901 0.058673754 0.14748983
0002f0 a6 f4 ea 3d 3c 53 a2 3d 53 96 a2 bd 29 d3 91 bd
       0.11472444 0.07926032 -0.07938828 -0.07120354
000300 d9 0c 1e be 2a 87 b8 3d 5a f3 dc bd c2 92 d3 bd
       -0.15434588 0.090101555 -0.10788603 -0.10330726
000310 2f 67 21 3e e2 32 8a 3d 1c 36 0d be 82 15 6c bd
       0.15762018 0.067479864 -0.13790172 -0.0576377
000320 28 6f 06 be 46 33 52 bd 8f ff 0d be a0 d1 b2 3b
       -0.1312834 -0.05131843 -0.13867019 0.005457118
000330 de dd f2 bd be 0b 1e bd ea 57 20 be c0 76 26 bb
       -0.11858724 -0.038585417 -0.15658537 -0.002540037
000340 dc 7b 0d be 2a d9 f3 3d 00 77 62 3b dc 3e f8 bd
       -0.1381678 0.11906655 0.0034555793 -0.121213645
000350 5c b4 42 3d 6c 4f ac bd ca 8e a5 3d ea fc c2 3d
       0.047535285 -0.08413586 0.080838755 0.09520896
000360 b2 ae d8 3d c0 1c 56 bd 62 82 df bd c4 ad 17 bd
       0.105801955 -0.052273512 -0.109135404 -0.03703095
000370 12 99 d1 3d b0 1a 04 bc cc 3c 02 be 96 6f c0 3d
       0.10234274 -0.008063003 -0.12718505 0.09396283
000380 ed 68 0b 3e bc a2 27 bd d6 9a ef bd e0 6e e1 bb
       0.13614245 -0.04092668 -0.116994545 -0.0068796724
000390 a3 89 bc bd b0 93 c1 bc 0a d8 f6 3d d9 50 08 3e
       -0.092059396 -0.023629993 0.12052925 0.13312091
0003a0 e4 11 19 3d 50 5a ab 3c 45 cc 1b be 10 6b a9 bc
       0.037370577 0.020917088 -0.15214641 -0.020680934
0003b0 2a 99 e3 3d 80 8e 09 be b2 bf e8 3d 1b 56 17 3e
       0.11113198 -0.13433266 0.11364688 0.1477894
0003c0 23 a3 04 3e 73 c7 16 3e 08 7f 85 3d fc cd 47 3d
       0.12952857 0.14724521 0.0651837 0.048780426
0003d0 8c 3d 07 bd 34 7e 06 bd 59 4b 15 be 7f 4e a6 bd
       -0.03301768 -0.0328352 -0.14579524 -0.08120441
0003e0 0e 3b 89 bd 80 b8 1a 3c 56 a2 99 bd 80 33 1f 3c
       -0.06700717 0.009443402 -0.07501666 0.009716868
0003f0 02 2c ce 3d 1b 5e 15 3e 9e 4e 96 3d ae f1 fe 3d
       0.100669876 0.1458668 0.07339214 0.124484405

features.layers.2.logic.0.layer.0.mlp.0.bias f4 [8]
000000 31 30 10 be ce a4 07 be 4d 09 16 be 3e 22 6d bd
       -0.14080884 -0.13246462 -0.14651985 -0.057893984
000010 90 a1 e9 bd df 31 17 3e e5 94 0b 3e 80 d0 9b 3c
       -0.11407769 0.14765118 0.13631018 0.019020319

features.layers.2.logic.1.layer.0.mlp.0.weight f4 [8, 68]
000000 c0 1f 3f bc 0a 20 1f bd bc ac 9f bd 9e f1 8f 3d
       -0.011665285 -0.038848914 -0.07796618 0.07028507
000010 88 c8 e5 3c a6 0b d8 3d f7 28 b7 bd 60 04 0a 3c
       0.028049722 0.10549097 -0.0894336 0.008423895
000020 70 b5 8f bd ac cd 96 3d 20 c8 36 3c c0 f2 1a 3d
       -0.07017028 0.073634475 0.011156112 0.03782916
000030 28 80 f6 3d 1c 21 8f bd e0 48 1c 3d 7c c9 b6 bc
       0.120361626 -0.06988737 0.038155437 -0.022312872
000040 6a d2 ed bd 60 6f 0b 3d 08 8b 24 bc 98 50 95 bd
       -0.11612399 0.034041762 -0.010042913 -0.07290763
000050 40 a6 99 3c 3e de cb bd 54 02 d0 bc f8 4d ee bd
       0.018756032 -0.09954499 -0.025391735 -0.11635965
000060 60 1e fb 3b 70 8b d3 bc d0 43 f0 3c d7 da 72 bd
       0.007663533 -0.025823325 0.02932921 -0.059290733
000070 79 b1 ab bd 18 9b a5 3d 20 03 85 3b a0 43 d5 3b
       -0.083834596 0.080862224 0.0040592104 0.0065083057
000080 bc 74 bf 3d cc 1e 4f 3d ec d1 d5 3d 0c 95 5f 3d
       0.09348437 0.05056648 0.1044043 0.0545855
000090 78 13 0f bd 40 57 a1 3c 38 b5 3a bc fa 46 82 3d
       -0.034930676 0.019694924 -0.011395745 0.06361194
0000a0 70 8f 61 3d 50 f8 34 3c f6 04 04 bd e0 91 c1 3d
       0.055068433 0.01104553 -0.032231294 0.094516516
0000b0 10 1a ad 3c 88 25 94 bc e2 58 ce 3d 1a 36 8d bd
       0.021130592 -0.018084303 0.10075547 -0.06895085
0000c0 a0 d3 f5 3c 80 26 3f 3b 22 29 ec bd fe ac 68 bd
       0.030008137 0.0029167235 -0.11531283 -0.056805603
0000d0 9c 0d 96 3d 4e 6b c7 3d f0 70 4a bc b0 c9 53 bc
       0.073268145 0.097372636 -0.012356028 -0.012926504
0000e0 66 6d d8 bd bc 3b da 3d bc 0b 41 3d f0 c1 2c bc
       -0.10567741 0.10655925 0.04713033 -0.010544285
0000f0 68 b0 31 3d 12 b0 df bd 6d 1b 86 bd f8 1b cd 3c
       0.043381125 -0.109222546 -0.065482 0.02503775
000100 08 83 f0 bc fb 30 bc bd a8 12 69 bd 93 7b cf bd
       -0.029359356 -0.0918903 -0.056902558 -0.10130992
000110 85 71 ab bd d4 ab 38 bd f0 45 8e 3d c5 8c e2 bd
       -0.083712615 -0.045085743 0.06946933 -0.11062006
000120 e2 da e0 bd e2 81 b4 3d 6c 56 59 3d 58 24 87 bc
       -0.109792486 0.08813836 0.053060934 -0.016496822
000130 52 98 29 bd 09 48 95 bd 30 07 dc 3d dc 6e 57 3d
       -0.04140503 -0.0728913 0.107435584 0.052595958
000140 e7 4d f4 bd 20 88 c5 bd 70 ae db 3c ae fd 98 3d
       -0.11928921 -0.096451044 0.026816577 0.074702606
000150 18 e2 e6 3c a8 97 aa bd 98 96 c0 3d 90 dc be 3d
       0.028183982 -0.083297074 0.094037235 0.09319413
000160 9c f8 e6 bd 4c 45 bf bd 3a a8 e3 3d 33 6a e7 bd
       -0.11277887 -0.09339389 0.11116071 -0.11299553
000170 3e 0e 96 bd d4 a7 e8 3d c8 b8 e8 3d 2e a1 9b 3d
       -0.07326935 0.11360136 0.11363369 0.07599102
000180 9c 17 eb 3d 6c 5f 15 bd d0 a1 ef 3c fc 06 0e bd
       0.114791125 -0.036467955 0.029251963 -0.03467463
000190 d2 6a b4 3d e8 b8 94 bc 73 eb ed bd d8 74 c8 3c
       0.08809437 -0.018154576 -0.11617174 0.024469778
0001a0 a2 57 90 3d 90 e9 b0 bd b1 e7 c5 bd 40 3d 46 3d
       0.07047965 -0.086382985 -0.09663332 0.048398256
0001b0 eb c9 8b bd 70 bb 26 3d 2c 12 bd 3d 70 1c 3f 3c
       -0.06825622 0.040706098 0.09231982 0.011664495
0001c0 a8 09 e6 3d 78 00 12 bd 32 69 d9 bd a2 ac a5 3d
       0.112323105 -0.03564498 -0.106157675 0.08089568
0001d0 2c a7 5b bd 60 a1 84 3d c0 68 bc 3b c0 2a b4 bd
       -0.053626224 0.06476092 0.005749792 -0.087972164
0001e0 46 7b ba bd 0c d2 51 3d 00 2e fe bb 8c 53 c8 3d
       -0.09105544 0.051225707 -0.0077569485 0.0978156
0001f0 48 44 e9 bd 0d 90 f5 bd 20 ee b9 3d 70 47 21 3d
       -0.11389977 -0.11990366 0.09078622 0.03937477
000200 44 db dc bd f4 5c dc bd 9c b2 b2 3d 35 17 d4 bd
       -0.10784009 -0.10759917 0.08725473 -0.10355989
000210 80 9e 20 ba 38 ab 5c bd 18 79 d7 3d 80 dd e2 ba
       -0.0006127134 -0.053874224 0.10521144 -0.0017308444
000220 8c 7e 7d 3d d0 1b 42 3d ec ab b0 bd a0 0a 2e bd
       0.061888263 0.047389805 -0.086265415 -0.0424906
000230 d0 b2 47 3d 78 4e 49 3d be 2a ca bd 9c a4 91 3d
       0.048754513 0.0491471 -0.09871434 0.07111475
000240 98 5a 46 bc 00 2a a9 3c 38 3e 86 3d 1a 72 52 bd
       -0.01210656 0.02064991 0.06554836 -0.051378347
000250 92 58 f1 3d 68 41 90 3d dc 9b 02 3d be b6 e9 3d
       0.117844716 0.07043725 0.03188692 0.114118084
000260 50 11 27 3c 60 a2 b5 bd bc 35 29 3d 72 24 ca 3d
       0.010196999 -0.08868861 0.04131101 0.09870233
000270 18 ec 3f bd c2 2f c6 3d f2 26 90 bd 98 72 9a 3c
       -0.046856016 0.09677078 -0.07038678 0.01885347
000280 40 42 d5 ba d6 7e b1 bd f6 27 2d bd 78 f0 cf 3c
       -0.0016270354 -0.0866677 -0.042274438 0.02538322
000290 80 18 90 bd b0 1e 03 bc 48 71 92 bc 60 ec aa 3c
       -0.07035923 -0.008002922 -0.017876282 0.020864666
0002a0 58 0b 4b bd 36 41 4b bd 54 c2 af bc 92 78 ad bd
       -0.049571365 -0.049622737 -0.021454968 -0.084702626
0002b0 88 db b9 bd 1c 7c f6 3d da 7b 42 bd e4 cf 94 bd
       -0.090750754 0.12035391 -0.047481395 -0.072662145
0002c0 12 97 7d bd 00 fd 83 3b 20 ad a2 3b b6 12 04 bd
       -0.06191165 0.0040279627 0.0049644858 -0.032244407
0002d0 7a f6 c1 3d a2 54 b2 3d bc 5a ae 3d e8 d4 b0 3d
       0.0947084 0.08707549 0.085134 0.08634359
0002e0 80 09 9d 3c d4 3a af bd d8 e3 99 3d 82 bf 3c bd
       0.019169569 -0.085561424 0.07514161 -0.046081074
0002f0 3c ad 82 3d dc ae 36 3d 26 f0 a6 3d 12 95 ad 3d
       0.06380698 0.044600353 0.081512734 0.084756985
000300 18 c4 c6 3d 48 a1 e3 3d 4c 37 da bd 78 8f 68 bc
       0.09705371 0.11114746 -0.10655078 -0.014194362
000310 60 7f d5 bc d8 9f c6 3c f0 22 e1 3d 94 f6 3b 3d
       -0.026061714 0.024246141 0.10992992 0.045889452
000320 60 b8 c3 3d d2 03 89 3d 6e 09 e3 3d 80 e7 5f 3c
       0.09556651 0.06690182 0.11085783 0.013666034
000330 4c 5b 90 bc 40 ed 81 3d 60 73 53 3d b4 76 96 3d
       -0.017621659 0.0634408 0.051623702 0.073468596
000340 94 8b a3 3d bc 33 ed 3d 40 36 82 bd 1c 22 9f bd
       0.07985607 0.11582133 -0.063580036 -0.07770178
000350 20 ae 6c 3d a2 f7 af 3d 9e f8 d8 3d 58 82 bc 3c
       0.057783246 0.08592154 0.10594295 0.023011371
000360 20 5f 93 3c 9c 4b 29 3d 20 73 ab 3b b0 25 6c bd
       0.017989695 0.041331872 0.00523223 -0.05765313
000370 d6 b6 8f 3d 51 87 c2 bd 14 65 ef bc 3b 2b e1 bd
       0.07017295 -0.09498466 -0.029223002 -0.10994574
000380 30 d3 f4 3c c4 fd 90 bd 5c 63 da 3d 88 19 da 3c
       0.029885858 -0.07079652 0.106634825 0.026623502
000390 20 50 0f 3b 20 b9 93 bd f9 e9 ac bd 50 8e a0 3c
       0.0021867827 -0.07213044 -0.08443064 0.01959911
0003a0 08 cd e2 3d 20 eb d6 3c dc d2 78 3d 4c 14 4b bd
       0.11074263 0.026235163 0.060747966 -0.049579903
0003b0 8e 9f b7 3d 4f dc f0 bd 58 1a 2d bc 7e c1 f2 3d
       0.089659795 -0.117607705 -0.010565363 0.11853312
0003c0 c4 ed 32 3d 7c ad 7a 3d a4 eb ee bc 20 0e b9 bc
       0.043683782 0.061200604 -0.029165097 -0.022589743
0003d0 d6 3d 8d 3d 5a 55 c1 3d 05 25 c9 bd f4 1f 4f bd
       0.0689656 0.09440108 -0.09821514 -0.050567582
0003e0 de c1 be 3d d8 ff 20 bc dc 90 8b bc 00 44 1c ba
       0.09314321 -0.009826623 -0.017036848 -0.00059610605
0003f0 92 03 bf 3d 10 fb 8c 3c 2e 39 a4 bd 60 0b 58 3d
       0.09326853 0.01720956 -0.08018719 0.052745223

features.layers.2.logic.1.layer.0.mlp.0.bias f4 [8]
000000 90 3d 85 3c b0 d7 c6 bd 24 ac ad bc c5 93 7c bd
       0.016264707 -0.09709108 -0.021200247 -0.06166436
000010 14 d1 2d 3d c8 54 ea 3c 28 08 eb 3d 60 a4 40 bd
       0.04243572 0.02860488 0.11476165 -0.04703176

features.layers.2.logic.2.layer.0.mlp.0.weight f4 [8, 76]
000000 70 45 30 3e 49 e8 05 3e f5 eb 8e bd 95 9f 93 be
       0.17213988 0.13076891 -0.06978599 -0.2883269
000010 1a 3d 4e bd cf 0f af 3e 58 05 ca be 54 7e 20 bf
       -0.05035124 0.34191748 -0.39457202 -0.6269276
000020 ea 30 44 3e 28 f7 03 bf 0a 8a 6e 3e d6 0e be 3e
       0.19159284 -0.51549006 0.23294845 0.37120694
000030 2d cf 32 bf 55 47 de 3e a7 09 99 3e 72 dd 9c 3e
       -0.69847375 0.43413797 0.29890177 0.306377
000040 4f 6a d8 be 35 99 5c bd 72 17 21 3e 15 d1 3f 3e
       -0.42268607 -0.053857047 0.157316 0.18732102
000050 0c 25 c9 bc 3a 8e a9 be fc 55 dc bd b1 23 ef be
       -0.024553798 -0.33116323 -0.10758588 -0.46706918
000060 8d a9 69 be bf 8d db be 3a cd e8 be 5f 90 e1 be
       -0.22818585 -0.4288158 -0.45469075 -0.4405546
000070 6d 55 f1 be d3 93 f9 be 82 64 9f 3e a2 b6 51 3e
       -0.47135487 -0.48745593 0.3113137 0.20479825
000080 ac 81 0a bf c7 39 c8 be f8 f4 b1 3e f6 32 35 bf
       -0.54104114 -0.3910658 0.3475721 -0.70780885
000090 fe 73 c8 3e 19 96 93 3d 7a 82 15 bf cf 6b c2 be
       0.39150995 0.07206363 -0.58402216 -0.37972876
0000a0 61 65 cc be ed 9a 05 be 07 db b6 be 07 cf 0c bf
       -0.39921096 -0.13047381 -0.3571398 -0.550034
0000b0 bd 3b 07 3e 54 e7 93 3e b1 9e 06 bf 38 65 b1 3d
       0.13206382 0.28887427 -0.52585894 0.08661884
0000c0 99 d1 36 bf e6 fd 41 bf e7 3d c7 3d 59 92 1a bf
       -0.7141357 -0.75778043 0.09728604 -0.6037956
0000d0 06 9a 0e bf 8a 47 1f bf 7d d5 92 3e 03 d4 d2 3d
       -0.5570377 -0.62218535 0.28678504 0.10294344
0000e0 7b 69 84 be ef 6d 6b be 6f 4a cd bd 6b 0e 8b 3e
       -0.25861725 -0.22991155 -0.10023963 0.27159438
0000f0 25 a4 b0 be 8d e2 4f bd 8c 7d ae be df c7 d7 3c
       -0.34500232 -0.050753165 -0.3408016 0.026340423
000100 fc 21 91 3d 22 9b 18 3d 94 50 14 3e ab a0 f9 3d
       0.0708656 0.03725732 0.14483863 0.12188848
000110 61 db 91 be 83 92 02 bf 89 fe a4 bd 25 4d 5b bd
       -0.28487685 -0.5100481 -0.08056361 -0.053540368
000120 c5 5c 88 be d0 19 05 3e e2 f0 7b be b9 61 cc be
       -0.26633278 0.12998128 -0.24603608 -0.39918306
000130 8e 6b e9 bb 61 15 c3 bd 31 a3 d5 bc 87 c4 c9 3e
       -0.007123417 -0.09525562 -0.026078792 0.3940775
000140 9b c9 0f bd 37 f0 2e be c5 e6 02 3f 4a ba 0a 3f
       -0.035104375 -0.17083822 0.51133376 0.54190505
000150 14 5e b7 be ed e8 2d 3f 15 63 cc be 9d 3e 8e be
       -0.35813963 0.6793354 -0.39919344 -0.27782145
000160 df 2e 15 3f f2 70 c0 be 37 1b 61 be de 15 5c be
       0.58274645 -0.3758617 -0.21983038 -0.21492717
000170 39 66 88 3e 00 b6 35 3a 78 40 8e be 6f 57 85 be
       0.2664049 0.0006931722 -0.2778356 -0.2604327
000180 d0 de e8 bb c0 47 69 3e 8c 81 31 3e 98 8b b0 3e
       -0.0071066394 0.22781277 0.17334574 0.34481502
000190 51 d1 9e 3e f8 8b 91 3e c5 2f 90 3e 33 8e d2 3e
       0.3101907 0.284271 0.28161445 0.41124114
0001a0 8f 94 0a 3f 30 de d4 3e 46 dd 80 be f5 f3 7e be
       0.5413293 0.41575766 -0.25168818 -0.2489775
0001b0 34 9d 15 3f e8 09 ed 3e 55 97 b5 be 8e f7 f7 3e
       0.58443 0.4629662 -0.3546702 0.48431057
0001c0 9d ba a9 be cd 08 6b be 70 2d 00 3f e6 96 f2 3e
       -0.33150187 -0.22952576 0.5006933 0.4738075
0001d0 20 c7 cc 3e c2 f9 a4 3e 33 6d a3 3e 13 7b 12 3f
       0.3999567 0.322218 0.3191925 0.57219046
0001e0 6c 4b 48 be d0 ca e6 bd c6 6f 0a 3f e2 a7 2d be
       -0.19560021 -0.11269152 0.540768 -0.16958573
0001f0 3e c1 40 3f 36 94 31 3f c2 54 9c be 0e 18 20 3f
       0.75294864 0.69366777 -0.30533415 0.62536705
000200 7e f2 0a 3f 62 a5 24 3f bc 90 7e be 95 b4 ce 3d
       0.54276264 0.64314854 -0.248599 0.10093037
000210 b9 65 c2 3e 5c 05 85 3e be 54 c6 bd 37 8d a1 bd
       0.37968233 0.2598065 -0.09684132 -0.07888263
000220 22 c8 04 3f 59 e4 80 3d de cc c2 3e b7 82 3d be
       0.5186788 0.06293554 0.38046926 -0.18506895
000230 e0 56 0f bd cf 25 3c 3d a6 37 e1 bd 33 a1 86 be
       -0.03499496 0.045934495 -0.10996942 -0.2629486
000240 f1 c2 d8 3e 00 95 b9 3e 9e a2 81 bd 4d b1 8f 3d
       0.42336228 0.3624649 -0.06329845 0.07016239
000250 f5 e1 be 3e dc 74 9b bd a5 51 e1 3e d5 79 c5 3e
       0.37281767 -0.075906485 0.44007602 0.38569513
000260 36 c0 52 bd fe 4b 3c be 22 e5 ec 3c 3a 54 d3 3e
       -0.051452838 -0.18388364 0.028917853 0.41275197
000270 fb 88 17 be 26 7e 55 be cb fb bb 3e 3b 31 1e 3f
       -0.14798348 -0.20848903 0.3671554 0.6179387
000280 49 d1 b2 be 59 7d 0a 3f cd 7d 90 be 97 be 93 be
       -0.34925297 0.54097515 -0.28220978 -0.28856346
000290 c4 42 1b 3f cd 32 91 be c8 77 57 be ec 7e b7 be
       0.6064875 -0.2835907 -0.21041787 -0.3583902
0002a0 71 2f 99 3e 5e b5 6b 3d 6b 0d 91 be 61 a7 d4 bd
       0.29919007 0.057546012 -0.2833055 -0.103834875
0002b0 f8 9e 2d 3c c1 4a 75 3e d2 9c 27 bd cb 24 c3 3e
       0.010596983 0.23954298 -0.04092104 0.38114008
0002c0 ac 1a fd 3d c6 83 cc 3e af af d8 3e 2f 02 c6 3e
       0.12358603 0.39944285 0.42321536 0.3867354
0002d0 dd c2 bb 3e d1 f9 07 3f 29 23 52 be 3b 82 84 be
       0.36672106 0.53115565 -0.20521225 -0.25880608
0002e0 f3 56 08 3f 17 c4 de 3e b9 cd 14 be 2d 22 08 3f
       0.53257674 0.4350898 -0.14531602 0.5317715
0002f0 8f e0 86 be b4 55 2f be ac 06 f8 3e 1e b2 e9 3e
       -0.263432 -0.17122537 0.4844259 0.45643705
000300 16 e8 d0 3e dc 76 33 3e 93 a3 d5 3e c7 38 05 3f
       0.40802068 0.1752581 0.4172636 0.5203976
000310 8f b7 af bd 4b ca c8 bd 6a e5 37 3f 65 5b 07 be
       -0.08579933 -0.09804209 0.71834433 -0.13218458
000320 1b d9 32 3f 56 9f 0f 3f 9c a8 68 be 61 4f 43 3f
       0.69862527 0.561025 -0.2272057 0.76293
000330 de 72 18 3f cb 5b 3c 3f 87 b4 0c be d5 f0 c4 bd
       0.59550273 0.73577565 -0.1374074 -0.096162476
000340 62 b1 b2 3e 92 f6 b8 3e c3 2d b0 bd 25 a8 81 be
       0.34900957 0.36125618 -0.08602478 -0.25323597
000350 98 55 8e 3e 4d 8d 7f 3b cb b3 5e 3e 5b c4 21 be
       0.27799678 0.0038994134 0.21748273 -0.1579756
000360 8d af 14 be 7c a3 11 bd 8e 4f 78 bd 40 39 49 be
       -0.14520092 -0.0355563 -0.060622744 -0.19650745
000370 a1 67 c2 3e 1f e8 9d 3e 4e 7e 56 3d 8c 07 02 3e
       0.37969688 0.30841157 0.052366547 0.12698191
000380 f3 02 c2 3e 1c 68 c0 bd 9e 41 c6 3e 27 ae de 3e
       0.37892875 -0.09394857 0.38721937 0.43492243
000390 63 b5 30 bd 82 8b a6 3d a5 d1 b0 3d 17 49 a3 be
       -0.043141734 0.08132078 0.086337365 -0.318917
0003a0 49 9a df 3c da 0c 43 3e 1a 2c fc be 14 fa 13 bf
       0.027295249 0.19047871 -0.49252397 -0.57803464
0003b0 a1 ac 73 3e ec cf 03 bf f5 cc bc 3e 82 22 b3 3e
       0.23796321 -0.5148914 0.3687512 0.34987265
0003c0 b2 c2 14 bf 9c 5e dd 3e 48 91 96 3e 9b ba c3 3e
       -0.5810958 0.43236244 0.29407716 0.38228306
0003d0 24 f5 b4 be 28 84 18 bc fe 7f 3d 3e 84 03 39 3e
       -0.35343277 -0.009308852 0.18505856 0.18067747
0003e0 c0 7b 90 ba a3 dd 18 be 9f c2 32 be 20 19 96 be
       -0.0011023208 -0.14928298 -0.17457055 -0.29316044
0003f0 84 7e f7 bd 15 35 93 be 57 c6 d3 be e9 72 bb be
       -0.12084678 -0.28751436 -0.4136226 -0.36611107

features.layers.2.logic.2.layer.0.mlp.0.bias f4 [8]
000000 3d 1f 81 be 70 cf 8a 3e 63 42 46 3e 4f 1c bf be
       -0.25219145 0.27111387 0.19361262 -0.37326285
000010 28 7d ac be f3 a3 70 3e ff b3 c2 3e 30 2a 54 be
       -0.33689237 0.23500042 0.3802795 -0.20719218

pred.layer.0.mlp.0.weight f4 [1, 30]
000000 2b 1c f7 be 98 e6 1b 3e 4f 41 62 3e 0c 52 79 3e
       -0.48263678 0.15224683 0.22095226 0.24347705
000010 58 ab b7 3d 3a 84 e1 be 42 6d 75 3f 88 e3 71 bf
       0.08968228 -0.44046193 0.9586984 -0.9448781
000020 43 ad 24 3f 44 5f 30 bf 80 db 14 bf 41 78 63 bf
       0.64326876 -0.68895364 -0.5814743 -0.8885537
000030 35 7e 46 bf 75 56 28 bf a8 dc 72 3f 0c 20 83 3f
       -0.77536327 -0.6575692 0.94867945 1.0244155
000040 95 c8 83 bf b8 44 8f bf b1 f6 84 3f 9a ae 8d bf
       -1.0295588 -1.1192846 1.0387784 -1.1068909
000050 b9 32 6c 3f 4b cd 65 3f a8 8d 66 3f 95 49 6d bf
       0.92264897 0.8976638 0.900599 -0.926904
000060 5b a6 76 bf 81 ba 86 3f 0e 75 88 3f 07 1e 83 bf
       -0.9634759 1.0525666 1.0660722 -1.0243539
000070 75 0d 71 bf 1a 23 82 3f
       -0.9416116 1.0166962

exp_avg f4 [8, 12]
000000 59 04 b2 3a 25 4d 30 3b 00 00 00 00 00 00 00 00
       0.0013581618 0.002690145 0.0 0.0
000010 cd 87 0a bb 4e f3 4c ba 23 c0 3e 39 f6 92 09 3a
       -0.0021138072 -0.00078182376 0.00018191389 0.0005248034
000020 00 00 00 00 00 00 00 00 f5 26 58 38 b2 ca ce 39
       0.0 0.0 5.1534695e-05 0.00039442402
000030 34 1c bb 3a b9 bf 2a 3b 00 00 00 00 00 00 00 00
       0.0014275373 0.0026054217 0.0 0.0
000040 49 91 10 bb 58 bf 86 ba 0d 17 ad b8 c5 ad 19 3a
       -0.0022059253 -0.0010280414 -8.2535764e-05 0.00058623805
000050 00 00 00 00 00 00 00 00 09 d0 43 b9 32 b9 fc 39
       0.0 0.0 -0.00018674148 0.00048203167
000060 f6 0e b9 3a 91 99 32 3b 00 00 00 00 00 00 00 00
       0.0014118839 0.0027252177 0.0 0.0
000070 b9 de 00 bb 87 32 2b ba 5f 12 9e 39 20 19 ee 39
       -0.0019664003 -0.00065306615 0.00030149796 0.00045413617
000080 00 00 00 00 00 00 00 00 a2 bd 9f 39 70 c4 ef 39
       0.0 0.0 0.0003046813 0.0004573199
000090 52 5d 80 ba 63 80 0d 3a 00 00 00 00 00 00 00 00
       -0.0009793437 0.0005397854 0.0 0.0
0000a0 e4 9e e7 38 71 97 d5 3a 00 91 e4 39 fc 3d 77 ba
       0.00011044534 0.0016295743 0.00043595582 -0.00094315386
0000b0 00 00 00 00 00 00 00 00 1a d9 d0 3a f1 ae 60 39
       0.0 0.0 0.0015933842 0.00021427475
0000c0 95 d8 81 3a b1 51 e2 3a 00 00 00 00 00 00 00 00
       0.0009906465 0.0017266778 0.0 0.0
0000d0 bb 8f e3 ba a3 16 83 ba 73 2b d8 b9 21 2c 13 3a
       -0.0017361561 -0.0010001253 -0.00041231103 0.00056141807
0000e0 00 00 00 00 00 00 00 00 3c a8 15 ba 37 33 d3 39
       0.0 0.0 -0.0005708968 0.00040283214
0000f0 7d 82 01 3b 72 53 52 3b 00 00 00 00 00 00 00 00
       0.0019761615 0.0032093194 0.0 0.0
000100 42 86 50 bb 9e 6a ff ba a8 b7 cd b9 91 b6 8b 3a
       -0.0031818305 -0.001948673 -0.00039237482 0.0010659267
000110 00 00 00 00 00 00 00 00 34 1c 88 ba 17 21 dc 39
       0.0 0.0 -0.0010384382 0.00041986324
000120 bf 2e b9 ba 4a 31 72 ba 00 00 00 00 00 00 00 00
       -0.0014128311 -0.0009238912 0.0 0.0
000130 f1 5b 04 3b 02 67 24 3b 03 8d ac 3a 6f 5b 93 ba
       0.0020196403 0.0025085812 0.0013164583 -0.0011242459
000140 00 00 00 00 00 00 00 00 56 7d 11 3b 02 6e 67 b9
       0.0 0.0 0.002219995 -0.00022070858
000150 a4 82 1a bb a6 c1 fd ba 00 00 00 00 00 00 00 00
       -0.0023576403 -0.001936008 0.0 0.0
000160 c3 ac 2b 3b 95 4e 47 3b a5 8e 88 3a d3 88 ee ba
       0.0026195503 0.0030411829 0.0010418488 -0.0018198736
000170 00 00 00 00 00 00 00 00 58 10 24 3b 21 db bb b9
       0.0 0.0 0.0025034156 -0.00035830683
